node {
  name: "global_step/Initializer/zeros"
  op: "Const"
  attr {
    key: "_class"
    value {
      list {
        s: "loc:@global_step"
      }
    }
  }
  attr {
    key: "_output_shapes"
    value {
      list {
        shape {
        }
      }
    }
  }
  attr {
    key: "dtype"
    value {
      type: DT_INT64
    }
  }
  attr {
    key: "value"
    value {
      tensor {
        dtype: DT_INT64
        tensor_shape {
        }
        int64_val: 0
      }
    }
  }
}
node {
  name: "global_step"
  op: "VariableV2"
  attr {
    key: "_class"
    value {
      list {
        s: "loc:@global_step"
      }
    }
  }
  attr {
    key: "_output_shapes"
    value {
      list {
        shape {
        }
      }
    }
  }
  attr {
    key: "container"
    value {
      s: ""
    }
  }
  attr {
    key: "dtype"
    value {
      type: DT_INT64
    }
  }
  attr {
    key: "shape"
    value {
      shape {
      }
    }
  }
  attr {
    key: "shared_name"
    value {
      s: ""
    }
  }
}
node {
  name: "global_step/Assign"
  op: "Assign"
  input: "global_step"
  input: "global_step/Initializer/zeros"
  attr {
    key: "T"
    value {
      type: DT_INT64
    }
  }
  attr {
    key: "_class"
    value {
      list {
        s: "loc:@global_step"
      }
    }
  }
  attr {
    key: "_output_shapes"
    value {
      list {
        shape {
        }
      }
    }
  }
  attr {
    key: "use_locking"
    value {
      b: true
    }
  }
  attr {
    key: "validate_shape"
    value {
      b: true
    }
  }
}
node {
  name: "global_step/read"
  op: "Identity"
  input: "global_step"
  attr {
    key: "T"
    value {
      type: DT_INT64
    }
  }
  attr {
    key: "_class"
    value {
      list {
        s: "loc:@global_step"
      }
    }
  }
  attr {
    key: "_output_shapes"
    value {
      list {
        shape {
        }
      }
    }
  }
}
node {
  name: "global_step/IsVariableInitialized"
  op: "IsVariableInitialized"
  input: "global_step"
  attr {
    key: "_class"
    value {
      list {
        s: "loc:@global_step"
      }
    }
  }
  attr {
    key: "_output_shapes"
    value {
      list {
        shape {
        }
      }
    }
  }
  attr {
    key: "dtype"
    value {
      type: DT_INT64
    }
  }
}
node {
  name: "global_step/cond/Switch"
  op: "Switch"
  input: "global_step/IsVariableInitialized"
  input: "global_step/IsVariableInitialized"
  attr {
    key: "T"
    value {
      type: DT_BOOL
    }
  }
  attr {
    key: "_output_shapes"
    value {
      list {
        shape {
        }
        shape {
        }
      }
    }
  }
}
node {
  name: "global_step/cond/switch_t"
  op: "Identity"
  input: "global_step/cond/Switch:1"
  attr {
    key: "T"
    value {
      type: DT_BOOL
    }
  }
  attr {
    key: "_output_shapes"
    value {
      list {
        shape {
        }
      }
    }
  }
}
node {
  name: "global_step/cond/switch_f"
  op: "Identity"
  input: "global_step/cond/Switch"
  attr {
    key: "T"
    value {
      type: DT_BOOL
    }
  }
  attr {
    key: "_output_shapes"
    value {
      list {
        shape {
        }
      }
    }
  }
}
node {
  name: "global_step/cond/pred_id"
  op: "Identity"
  input: "global_step/IsVariableInitialized"
  attr {
    key: "T"
    value {
      type: DT_BOOL
    }
  }
  attr {
    key: "_output_shapes"
    value {
      list {
        shape {
        }
      }
    }
  }
}
node {
  name: "global_step/cond/read"
  op: "Identity"
  input: "global_step/cond/read/Switch:1"
  attr {
    key: "T"
    value {
      type: DT_INT64
    }
  }
  attr {
    key: "_output_shapes"
    value {
      list {
        shape {
        }
      }
    }
  }
}
node {
  name: "global_step/cond/read/Switch"
  op: "RefSwitch"
  input: "global_step"
  input: "global_step/cond/pred_id"
  attr {
    key: "T"
    value {
      type: DT_INT64
    }
  }
  attr {
    key: "_class"
    value {
      list {
        s: "loc:@global_step"
      }
    }
  }
  attr {
    key: "_output_shapes"
    value {
      list {
        shape {
        }
        shape {
        }
      }
    }
  }
}
node {
  name: "global_step/cond/Switch_1"
  op: "Switch"
  input: "global_step/Initializer/zeros"
  input: "global_step/cond/pred_id"
  attr {
    key: "T"
    value {
      type: DT_INT64
    }
  }
  attr {
    key: "_class"
    value {
      list {
        s: "loc:@global_step"
      }
    }
  }
  attr {
    key: "_output_shapes"
    value {
      list {
        shape {
        }
        shape {
        }
      }
    }
  }
}
node {
  name: "global_step/cond/Merge"
  op: "Merge"
  input: "global_step/cond/Switch_1"
  input: "global_step/cond/read"
  attr {
    key: "N"
    value {
      i: 2
    }
  }
  attr {
    key: "T"
    value {
      type: DT_INT64
    }
  }
  attr {
    key: "_output_shapes"
    value {
      list {
        shape {
        }
        shape {
        }
      }
    }
  }
}
node {
  name: "global_step/add/y"
  op: "Const"
  attr {
    key: "_output_shapes"
    value {
      list {
        shape {
        }
      }
    }
  }
  attr {
    key: "dtype"
    value {
      type: DT_INT64
    }
  }
  attr {
    key: "value"
    value {
      tensor {
        dtype: DT_INT64
        tensor_shape {
        }
        int64_val: 0
      }
    }
  }
}
node {
  name: "global_step/add"
  op: "Add"
  input: "global_step/cond/Merge"
  input: "global_step/add/y"
  attr {
    key: "T"
    value {
      type: DT_INT64
    }
  }
  attr {
    key: "_output_shapes"
    value {
      list {
        shape {
        }
      }
    }
  }
}
node {
  name: "Const"
  op: "Const"
  device: "/device:CPU:0"
  attr {
    key: "_output_shapes"
    value {
      list {
        shape {
        }
      }
    }
  }
  attr {
    key: "dtype"
    value {
      type: DT_STRING
    }
  }
  attr {
    key: "value"
    value {
      tensor {
        dtype: DT_STRING
        tensor_shape {
        }
        string_val: "./VCTK-Corpus/tfdata/train.tfrecord"
      }
    }
  }
}
node {
  name: "flat_filenames/shape"
  op: "Const"
  device: "/device:CPU:0"
  attr {
    key: "_output_shapes"
    value {
      list {
        shape {
          dim {
            size: 1
          }
        }
      }
    }
  }
  attr {
    key: "dtype"
    value {
      type: DT_INT32
    }
  }
  attr {
    key: "value"
    value {
      tensor {
        dtype: DT_INT32
        tensor_shape {
          dim {
            size: 1
          }
        }
        int_val: -1
      }
    }
  }
}
node {
  name: "flat_filenames"
  op: "Reshape"
  input: "Const"
  input: "flat_filenames/shape"
  device: "/device:CPU:0"
  attr {
    key: "T"
    value {
      type: DT_STRING
    }
  }
  attr {
    key: "Tshape"
    value {
      type: DT_INT32
    }
  }
  attr {
    key: "_output_shapes"
    value {
      list {
        shape {
          dim {
            size: 1
          }
        }
      }
    }
  }
}
node {
  name: "Const_1"
  op: "Const"
  device: "/device:CPU:0"
  attr {
    key: "_output_shapes"
    value {
      list {
        shape {
          dim {
            size: 5585
          }
        }
      }
    }
  }
  attr {
    key: "dtype"
    value {
      type: DT_STRING
    }
  }
  attr {
    key: "value"
    value {
      tensor {
        dtype: DT_STRING
        tensor_shape {
          dim {
            size: 5585
          }
        }
        string_val: "<unk>"
        string_val: "<s>"
        string_val: "</s>"
        string_val: "a"
        string_val: "aback"
        string_val: "abandon"
        string_val: "abbey"
        string_val: "aberdeen"
        string_val: "abiding"
        string_val: "able"
        string_val: "abnormally"
        string_val: "abortion"
        string_val: "about"
        string_val: "above"
        string_val: "abroad"
        string_val: "absence"
        string_val: "absences"
        string_val: "absent"
        string_val: "absentee"
        string_val: "absolute"
        string_val: "absolutely"
        string_val: "abstract"
        string_val: "absurd"
        string_val: "abundance"
        string_val: "abuse"
        string_val: "abused"
        string_val: "abusers"
        string_val: "accept"
        string_val: "accepted"
        string_val: "access"
        string_val: "accident"
        string_val: "accidents"
        string_val: "according"
        string_val: "accordingly"
        string_val: "account"
        string_val: "accountable"
        string_val: "accounted"
        string_val: "accounting"
        string_val: "accounts"
        string_val: "accurate"
        string_val: "accused"
        string_val: "accustomed"
        string_val: "achieve"
        string_val: "achieved"
        string_val: "achievement"
        string_val: "achievements"
        string_val: "achieving"
        string_val: "acknowledge"
        string_val: "acknowledged"
        string_val: "across"
        string_val: "act"
        string_val: "acted"
        string_val: "acting"
        string_val: "action"
        string_val: "actions"
        string_val: "active"
        string_val: "actor"
        string_val: "actors"
        string_val: "acts"
        string_val: "actual"
        string_val: "actually"
        string_val: "acute"
        string_val: "adamant"
        string_val: "adams"
        string_val: "adapt"
        string_val: "add"
        string_val: "added"
        string_val: "addict"
        string_val: "addiction"
        string_val: "addictive"
        string_val: "addition"
        string_val: "additions"
        string_val: "address"
        string_val: "addressed"
        string_val: "adjust"
        string_val: "adjusted"
        string_val: "adjustments"
        string_val: "admirers"
        string_val: "admission"
        string_val: "admits"
        string_val: "admitted"
        string_val: "admonished"
        string_val: "adopt"
        string_val: "adopted"
        string_val: "adoption"
        string_val: "adult"
        string_val: "adults"
        string_val: "advance"
        string_val: "advanced"
        string_val: "advances"
        string_val: "advantage"
        string_val: "adventure"
        string_val: "adverse"
        string_val: "advertised"
        string_val: "adverts"
        string_val: "advice"
        string_val: "advised"
        string_val: "adviser"
        string_val: "advisers"
        string_val: "affair"
        string_val: "affairs"
        string_val: "affect"
        string_val: "affected"
        string_val: "affection"
        string_val: "afford"
        string_val: "afghan"
        string_val: "afghanistan"
        string_val: "afraid"
        string_val: "africa"
        string_val: "african"
        string_val: "after"
        string_val: "afternoon"
        string_val: "afterwards"
        string_val: "again"
        string_val: "against"
        string_val: "agassi"
        string_val: "age"
        string_val: "agencies"
        string_val: "agency"
        string_val: "agenda"
        string_val: "agent"
        string_val: "agents"
        string_val: "ages"
        string_val: "aggression"
        string_val: "aggressive"
        string_val: "ago"
        string_val: "agree"
        string_val: "agreed"
        string_val: "agreement"
        string_val: "agrees"
        string_val: "ahead"
        string_val: "aid"
        string_val: "aide"
        string_val: "aids"
        string_val: "aim"
        string_val: "aimed"
        string_val: "aiming"
        string_val: "aims"
        string_val: "air"
        string_val: "airbus"
        string_val: "aircraft"
        string_val: "airdrie"
        string_val: "airport"
        string_val: "airspace"
        string_val: "alain"
        string_val: "alan"
        string_val: "alarm"
        string_val: "alastair"
        string_val: "album"
        string_val: "albums"
        string_val: "alcohol"
        string_val: "alert"
        string_val: "alex"
        string_val: "ali"
        string_val: "alibi"
        string_val: "alice"
        string_val: "alien"
        string_val: "alight"
        string_val: "alison"
        string_val: "alistair"
        string_val: "alive"
        string_val: "all"
        string_val: "allan"
        string_val: "allegations"
        string_val: "allen"
        string_val: "alliance"
        string_val: "allies"
        string_val: "allocation"
        string_val: "allow"
        string_val: "allowed"
        string_val: "allows"
        string_val: "almost"
        string_val: "alone"
        string_val: "along"
        string_val: "alongside"
        string_val: "already"
        string_val: "alright"
        string_val: "also"
        string_val: "alter"
        string_val: "altered"
        string_val: "alternative"
        string_val: "although"
        string_val: "always"
        string_val: "am"
        string_val: "amateur"
        string_val: "amazed"
        string_val: "amazing"
        string_val: "ambition"
        string_val: "ambitions"
        string_val: "ambitious"
        string_val: "ambulance"
        string_val: "ambush"
        string_val: "amended"
        string_val: "amendment"
        string_val: "amiss"
        string_val: "amnesty"
        string_val: "among"
        string_val: "amongst"
        string_val: "amount"
        string_val: "amused"
        string_val: "an"
        string_val: "analysis"
        string_val: "analyst"
        string_val: "analysts"
        string_val: "and"
        string_val: "anderson"
        string_val: "andrew"
        string_val: "andy"
        string_val: "angel"
        string_val: "anger"
        string_val: "angina"
        string_val: "angola"
        string_val: "angrily"
        string_val: "angry"
        string_val: "animal"
        string_val: "animals"
        string_val: "ankles"
        string_val: "ann"
        string_val: "annabelle"
        string_val: "annika"
        string_val: "announced"
        string_val: "announcement"
        string_val: "announcements"
        string_val: "annoyed"
        string_val: "annoying"
        string_val: "annual"
        string_val: "another"
        string_val: "answer"
        string_val: "answered"
        string_val: "answers"
        string_val: "anthrax"
        string_val: "anti"
        string_val: "anxious"
        string_val: "any"
        string_val: "anymore"
        string_val: "anyone"
        string_val: "anything"
        string_val: "anyway"
        string_val: "anywhere"
        string_val: "apart"
        string_val: "apartheid"
        string_val: "appalled"
        string_val: "appalling"
        string_val: "apparently"
        string_val: "appeal"
        string_val: "appealed"
        string_val: "appealing"
        string_val: "appear"
        string_val: "appearance"
        string_val: "appeared"
        string_val: "appears"
        string_val: "applauded"
        string_val: "applicants"
        string_val: "applied"
        string_val: "apply"
        string_val: "applying"
        string_val: "appointed"
        string_val: "appointing"
        string_val: "appointment"
        string_val: "appointments"
        string_val: "approach"
        string_val: "approached"
        string_val: "approaching"
        string_val: "appropriate"
        string_val: "approval"
        string_val: "approvals"
        string_val: "approve"
        string_val: "approved"
        string_val: "april"
        string_val: "arabia"
        string_val: "arabs"
        string_val: "arafat"
        string_val: "arc"
        string_val: "arch"
        string_val: "archaic"
        string_val: "archer"
        string_val: "architect"
        string_val: "architects"
        string_val: "are"
        string_val: "area"
        string_val: "areas"
        string_val: "arent"
        string_val: "argue"
        string_val: "argued"
        string_val: "argues"
        string_val: "arguing"
        string_val: "argument"
        string_val: "arguments"
        string_val: "arise"
        string_val: "arises"
        string_val: "aristotle"
        string_val: "arm"
        string_val: "army"
        string_val: "arnie"
        string_val: "around"
        string_val: "arranged"
        string_val: "arrangement"
        string_val: "arrest"
        string_val: "arrested"
        string_val: "arrival"
        string_val: "arrived"
        string_val: "arrogance"
        string_val: "arrogant"
        string_val: "arrow"
        string_val: "arsenal"
        string_val: "art"
        string_val: "article"
        string_val: "artist"
        string_val: "artists"
        string_val: "arts"
        string_val: "artwork"
        string_val: "as"
        string_val: "ashamed"
        string_val: "aside"
        string_val: "ask"
        string_val: "asked"
        string_val: "asking"
        string_val: "aspect"
        string_val: "aspects"
        string_val: "assassin"
        string_val: "assault"
        string_val: "assaulted"
        string_val: "assaults"
        string_val: "assembly"
        string_val: "assertion"
        string_val: "assess"
        string_val: "assessment"
        string_val: "asset"
        string_val: "assets"
        string_val: "assignment"
        string_val: "assistance"
        string_val: "assumed"
        string_val: "assumption"
        string_val: "assure"
        string_val: "assured"
        string_val: "aston"
        string_val: "astonished"
        string_val: "asylum"
        string_val: "at"
        string_val: "athens"
        string_val: "athlete"
        string_val: "athletes"
        string_val: "athletics"
        string_val: "atmosphere"
        string_val: "atrocious"
        string_val: "attachment"
        string_val: "attack"
        string_val: "attacked"
        string_val: "attacker"
        string_val: "attacking"
        string_val: "attacks"
        string_val: "attempt"
        string_val: "attempted"
        string_val: "attempting"
        string_val: "attempts"
        string_val: "attend"
        string_val: "attendance"
        string_val: "attended"
        string_val: "attention"
        string_val: "attitude"
        string_val: "attitudes"
        string_val: "attorney"
        string_val: "attracted"
        string_val: "attracting"
        string_val: "attraction"
        string_val: "attractive"
        string_val: "attrition"
        string_val: "auction"
        string_val: "audacious"
        string_val: "audible"
        string_val: "audience"
        string_val: "audiences"
        string_val: "audio"
        string_val: "audit"
        string_val: "audition"
        string_val: "auditors"
        string_val: "august"
        string_val: "augusta"
        string_val: "australia"
        string_val: "austria"
        string_val: "authorities"
        string_val: "authority"
        string_val: "authors"
        string_val: "autism"
        string_val: "autumn"
        string_val: "avail"
        string_val: "available"
        string_val: "avalanche"
        string_val: "average"
        string_val: "averted"
        string_val: "avoid"
        string_val: "avoided"
        string_val: "awaiting"
        string_val: "awaits"
        string_val: "award"
        string_val: "awarded"
        string_val: "awards"
        string_val: "aware"
        string_val: "awareness"
        string_val: "away"
        string_val: "awesome"
        string_val: "awful"
        string_val: "axis"
        string_val: "aye"
        string_val: "ayr"
        string_val: "ayrshire"
        string_val: "b"
        string_val: "ba"
        string_val: "baby"
        string_val: "back"
        string_val: "backdated"
        string_val: "backed"
        string_val: "backfire"
        string_val: "background"
        string_val: "backing"
        string_val: "backwards"
        string_val: "backyard"
        string_val: "bacterium"
        string_val: "bad"
        string_val: "badly"
        string_val: "badminton"
        string_val: "bags"
        string_val: "balance"
        string_val: "balanced"
        string_val: "balancing"
        string_val: "balkans"
        string_val: "ball"
        string_val: "ballet"
        string_val: "ballot"
        string_val: "baloney"
        string_val: "ban"
        string_val: "band"
        string_val: "bands"
        string_val: "bank"
        string_val: "banker"
        string_val: "bankers"
        string_val: "banking"
        string_val: "banks"
        string_val: "banned"
        string_val: "bar"
        string_val: "barber"
        string_val: "bare"
        string_val: "barely"
        string_val: "bargain"
        string_val: "barnett"
        string_val: "barrier"
        string_val: "barriers"
        string_val: "barry"
        string_val: "base"
        string_val: "based"
        string_val: "basic"
        string_val: "basically"
        string_val: "basics"
        string_val: "basis"
        string_val: "basketball"
        string_val: "bass"
        string_val: "bastard"
        string_val: "bastards"
        string_val: "bath"
        string_val: "baton"
        string_val: "battle"
        string_val: "baxter"
        string_val: "bbc"
        string_val: "be"
        string_val: "beach"
        string_val: "bear"
        string_val: "beat"
        string_val: "beaten"
        string_val: "beating"
        string_val: "beautiful"
        string_val: "beauty"
        string_val: "became"
        string_val: "because"
        string_val: "become"
        string_val: "becomes"
        string_val: "becoming"
        string_val: "bed"
        string_val: "bedroom"
        string_val: "bedside"
        string_val: "beef"
        string_val: "been"
        string_val: "beethoven"
        string_val: "before"
        string_val: "beforehand"
        string_val: "began"
        string_val: "begin"
        string_val: "beginning"
        string_val: "begins"
        string_val: "begun"
        string_val: "behalf"
        string_val: "behaved"
        string_val: "behaviour"
        string_val: "behind"
        string_val: "being"
        string_val: "beings"
        string_val: "belfast"
        string_val: "belgium"
        string_val: "belief"
        string_val: "beliefs"
        string_val: "believe"
        string_val: "believed"
        string_val: "believer"
        string_val: "believes"
        string_val: "believing"
        string_val: "belongs"
        string_val: "beloved"
        string_val: "bemused"
        string_val: "bench"
        string_val: "benches"
        string_val: "benchmark"
        string_val: "benefit"
        string_val: "benefits"
        string_val: "bereavement"
        string_val: "berlin"
        string_val: "beside"
        string_val: "best"
        string_val: "bet"
        string_val: "betrayal"
        string_val: "better"
        string_val: "between"
        string_val: "bevan"
        string_val: "bewildered"
        string_val: "beyond"
        string_val: "bid"
        string_val: "bidder"
        string_val: "big"
        string_val: "bigger"
        string_val: "biggest"
        string_val: "bigotry"
        string_val: "bill"
        string_val: "billie"
        string_val: "bills"
        string_val: "billy"
        string_val: "bin"
        string_val: "binding"
        string_val: "birdie"
        string_val: "birthday"
        string_val: "birthdays"
        string_val: "biscuit"
        string_val: "biscuits"
        string_val: "bit"
        string_val: "bitter"
        string_val: "bitterly"
        string_val: "bitterness"
        string_val: "bizarre"
        string_val: "black"
        string_val: "blackburn"
        string_val: "blackened"
        string_val: "blackout"
        string_val: "blair"
        string_val: "blairs"
        string_val: "blame"
        string_val: "blamed"
        string_val: "blaming"
        string_val: "blast"
        string_val: "blessing"
        string_val: "blew"
        string_val: "blind"
        string_val: "block"
        string_val: "blocks"
        string_val: "blood"
        string_val: "bloody"
        string_val: "blow"
        string_val: "blown"
        string_val: "blue"
        string_val: "blueits"
        string_val: "blueprint"
        string_val: "blueshe"
        string_val: "blunkett"
        string_val: "blunt"
        string_val: "board"
        string_val: "boarding"
        string_val: "boat"
        string_val: "boats"
        string_val: "bob"
        string_val: "bobby"
        string_val: "bodies"
        string_val: "body"
        string_val: "boiling"
        string_val: "bomb"
        string_val: "bombardment"
        string_val: "bomber"
        string_val: "bombers"
        string_val: "bombing"
        string_val: "bonnie"
        string_val: "bonus"
        string_val: "book"
        string_val: "booked"
        string_val: "bookies"
        string_val: "booking"
        string_val: "bookings"
        string_val: "books"
        string_val: "bookshops"
        string_val: "boost"
        string_val: "border"
        string_val: "borderer"
        string_val: "borders"
        string_val: "born"
        string_val: "borrowing"
        string_val: "bosnia"
        string_val: "boss"
        string_val: "both"
        string_val: "bother"
        string_val: "bottle"
        string_val: "bottling"
        string_val: "bottom"
        string_val: "bought"
        string_val: "bound"
        string_val: "boundaries"
        string_val: "bout"
        string_val: "bow"
        string_val: "bows"
        string_val: "box"
        string_val: "boxer"
        string_val: "boxing"
        string_val: "boy"
        string_val: "boys"
        string_val: "branch"
        string_val: "branches"
        string_val: "brand"
        string_val: "bravado"
        string_val: "brave"
        string_val: "brazil"
        string_val: "breach"
        string_val: "breadwinner"
        string_val: "break"
        string_val: "breakaway"
        string_val: "breakdown"
        string_val: "breakin"
        string_val: "breaking"
        string_val: "breakthrough"
        string_val: "breath"
        string_val: "breathtaking"
        string_val: "breeding"
        string_val: "brian"
        string_val: "bridge"
        string_val: "briefly"
        string_val: "brigades"
        string_val: "bright"
        string_val: "brighter"
        string_val: "brighton"
        string_val: "brilliant"
        string_val: "bring"
        string_val: "bringing"
        string_val: "brings"
        string_val: "brink"
        string_val: "britain"
        string_val: "britains"
        string_val: "british"
        string_val: "briton"
        string_val: "brittle"
        string_val: "britton"
        string_val: "broadcast"
        string_val: "broadcasting"
        string_val: "broadly"
        string_val: "brochure"
        string_val: "broke"
        string_val: "broken"
        string_val: "bronze"
        string_val: "broomfield"
        string_val: "brother"
        string_val: "brothers"
        string_val: "brought"
        string_val: "brown"
        string_val: "bruce"
        string_val: "brunt"
        string_val: "brussels"
        string_val: "bubbles"
        string_val: "bucket"
        string_val: "buckingham"
        string_val: "budget"
        string_val: "bug"
        string_val: "build"
        string_val: "building"
        string_val: "buildings"
        string_val: "buildup"
        string_val: "built"
        string_val: "bulk"
        string_val: "bully"
        string_val: "bunch"
        string_val: "bunker"
        string_val: "bunkers"
        string_val: "buoyant"
        string_val: "burger"
        string_val: "burial"
        string_val: "buried"
        string_val: "burning"
        string_val: "burrell"
        string_val: "bus"
        string_val: "buses"
        string_val: "bush"
        string_val: "business"
        string_val: "businesses"
        string_val: "businesslike"
        string_val: "busy"
        string_val: "but"
        string_val: "butcher"
        string_val: "buy"
        string_val: "buyer"
        string_val: "buying"
        string_val: "buzz"
        string_val: "by"
        string_val: "byers"
        string_val: "bystanders"
        string_val: "cabinet"
        string_val: "cable"
        string_val: "cafe"
        string_val: "cake"
        string_val: "calderwood"
        string_val: "calibre"
        string_val: "call"
        string_val: "called"
        string_val: "calling"
        string_val: "callous"
        string_val: "calls"
        string_val: "calm"
        string_val: "calvin"
        string_val: "came"
        string_val: "camera"
        string_val: "cameron"
        string_val: "campaign"
        string_val: "campaigners"
        string_val: "campaigning"
        string_val: "campbell"
        string_val: "can"
        string_val: "canada"
        string_val: "cancelled"
        string_val: "cancer"
        string_val: "candid"
        string_val: "candidate"
        string_val: "candidates"
        string_val: "cannabis"
        string_val: "cannes"
        string_val: "cannot"
        string_val: "cant"
        string_val: "cap"
        string_val: "capable"
        string_val: "capacity"
        string_val: "capital"
        string_val: "captain"
        string_val: "captaincy"
        string_val: "captors"
        string_val: "capture"
        string_val: "car"
        string_val: "carcasses"
        string_val: "card"
        string_val: "cards"
        string_val: "care"
        string_val: "career"
        string_val: "careful"
        string_val: "carefully"
        string_val: "carers"
        string_val: "cares"
        string_val: "carlo"
        string_val: "carlton"
        string_val: "caroline"
        string_val: "carpet"
        string_val: "carried"
        string_val: "carries"
        string_val: "carry"
        string_val: "carrying"
        string_val: "cars"
        string_val: "case"
        string_val: "cases"
        string_val: "cash"
        string_val: "cassette"
        string_val: "cast"
        string_val: "casting"
        string_val: "castle"
        string_val: "casualties"
        string_val: "casualty"
        string_val: "catalogue"
        string_val: "catalyst"
        string_val: "catastrophe"
        string_val: "catch"
        string_val: "catching"
        string_val: "catholic"
        string_val: "cattle"
        string_val: "catwalk"
        string_val: "caught"
        string_val: "cause"
        string_val: "caused"
        string_val: "causes"
        string_val: "causing"
        string_val: "caution"
        string_val: "cautious"
        string_val: "caveat"
        string_val: "ceasefire"
        string_val: "ceiling"
        string_val: "celebrate"
        string_val: "cell"
        string_val: "cellars"
        string_val: "celtic"
        string_val: "central"
        string_val: "centre"
        string_val: "centres"
        string_val: "centuries"
        string_val: "century"
        string_val: "certain"
        string_val: "certainly"
        string_val: "chairman"
        string_val: "challenge"
        string_val: "challenged"
        string_val: "challenges"
        string_val: "challenging"
        string_val: "chamber"
        string_val: "chambers"
        string_val: "champagne"
        string_val: "champion"
        string_val: "champions"
        string_val: "championship"
        string_val: "championships"
        string_val: "chance"
        string_val: "chancellor"
        string_val: "chancellors"
        string_val: "chances"
        string_val: "change"
        string_val: "changed"
        string_val: "changes"
        string_val: "changing"
        string_val: "channel"
        string_val: "chaos"
        string_val: "chaotic"
        string_val: "chapter"
        string_val: "character"
        string_val: "characters"
        string_val: "charge"
        string_val: "charged"
        string_val: "charges"
        string_val: "charisma"
        string_val: "charity"
        string_val: "charles"
        string_val: "charlie"
        string_val: "charm"
        string_val: "chat"
        string_val: "cheap"
        string_val: "chechens"
        string_val: "check"
        string_val: "checkup"
        string_val: "cheese"
        string_val: "chelsea"
        string_val: "chemistry"
        string_val: "chief"
        string_val: "chiefs"
        string_val: "child"
        string_val: "childbirth"
        string_val: "childhood"
        string_val: "children"
        string_val: "chill"
        string_val: "chilling"
        string_val: "china"
        string_val: "chirac"
        string_val: "chisholm"
        string_val: "choice"
        string_val: "choices"
        string_val: "choir"
        string_val: "choose"
        string_val: "chose"
        string_val: "chosen"
        string_val: "chris"
        string_val: "christina"
        string_val: "christmas"
        string_val: "church"
        string_val: "cigarette"
        string_val: "cinema"
        string_val: "circle"
        string_val: "circumstances"
        string_val: "cities"
        string_val: "citizens"
        string_val: "city"
        string_val: "civic"
        string_val: "civil"
        string_val: "civilians"
        string_val: "civilised"
        string_val: "claim"
        string_val: "claimed"
        string_val: "claiming"
        string_val: "claims"
        string_val: "clarify"
        string_val: "clarity"
        string_val: "clark"
        string_val: "clarke"
        string_val: "class"
        string_val: "classes"
        string_val: "classic"
        string_val: "classical"
        string_val: "clean"
        string_val: "cleaner"
        string_val: "clear"
        string_val: "clearcut"
        string_val: "cleared"
        string_val: "clearer"
        string_val: "clearly"
        string_val: "clerk"
        string_val: "clever"
        string_val: "clients"
        string_val: "climate"
        string_val: "climax"
        string_val: "climb"
        string_val: "clinical"
        string_val: "clinicians"
        string_val: "clinton"
        string_val: "cloning"
        string_val: "close"
        string_val: "closed"
        string_val: "closely"
        string_val: "closing"
        string_val: "closure"
        string_val: "club"
        string_val: "clubhouse"
        string_val: "clubs"
        string_val: "clue"
        string_val: "clutching"
        string_val: "clydesdale"
        string_val: "coach"
        string_val: "coaches"
        string_val: "coaching"
        string_val: "coalition"
        string_val: "coast"
        string_val: "code"
        string_val: "coe"
        string_val: "coffins"
        string_val: "cohesion"
        string_val: "cold"
        string_val: "colin"
        string_val: "collaboration"
        string_val: "collapse"
        string_val: "collapsed"
        string_val: "colleagues"
        string_val: "collecting"
        string_val: "collection"
        string_val: "collective"
        string_val: "college"
        string_val: "collision"
        string_val: "colonel"
        string_val: "colored"
        string_val: "colors"
        string_val: "colour"
        string_val: "colourful"
        string_val: "colours"
        string_val: "coma"
        string_val: "combat"
        string_val: "combination"
        string_val: "come"
        string_val: "comedian"
        string_val: "comedy"
        string_val: "comended"
        string_val: "comes"
        string_val: "comfortable"
        string_val: "comforted"
        string_val: "comforting"
        string_val: "coming"
        string_val: "commanding"
        string_val: "comment"
        string_val: "commenting"
        string_val: "comments"
        string_val: "commercial"
        string_val: "commission"
        string_val: "commissioned"
        string_val: "commitment"
        string_val: "commitments"
        string_val: "committed"
        string_val: "committee"
        string_val: "committees"
        string_val: "committing"
        string_val: "common"
        string_val: "commonplace"
        string_val: "commons"
        string_val: "commonwealth"
        string_val: "commonwealths"
        string_val: "communal"
        string_val: "communist"
        string_val: "companies"
        string_val: "companion"
        string_val: "company"
        string_val: "companys"
        string_val: "compare"
        string_val: "comparing"
        string_val: "compelled"
        string_val: "compelling"
        string_val: "compensation"
        string_val: "compete"
        string_val: "competed"
        string_val: "competing"
        string_val: "compiled"
        string_val: "complacent"
        string_val: "complaining"
        string_val: "complaint"
        string_val: "complaints"
        string_val: "complete"
        string_val: "completed"
        string_val: "completely"
        string_val: "completing"
        string_val: "completion"
        string_val: "complex"
        string_val: "compliance"
        string_val: "complicated"
        string_val: "comply"
        string_val: "composer"
        string_val: "composite"
        string_val: "composure"
        string_val: "compromise"
        string_val: "computer"
        string_val: "conceded"
        string_val: "conceived"
        string_val: "concentrate"
        string_val: "concept"
        string_val: "concern"
        string_val: "concerned"
        string_val: "concerns"
        string_val: "concert"
        string_val: "concerted"
        string_val: "concerto"
        string_val: "concertos"
        string_val: "concession"
        string_val: "concessions"
        string_val: "conclude"
        string_val: "concluding"
        string_val: "conclusion"
        string_val: "conclusions"
        string_val: "condemned"
        string_val: "condition"
        string_val: "conditions"
        string_val: "conduct"
        string_val: "conducted"
        string_val: "conductor"
        string_val: "conference"
        string_val: "confess"
        string_val: "confession"
        string_val: "confidence"
        string_val: "confident"
        string_val: "confined"
        string_val: "confirm"
        string_val: "confirmed"
        string_val: "confirms"
        string_val: "conflict"
        string_val: "conflicts"
        string_val: "conform"
        string_val: "confronted"
        string_val: "confused"
        string_val: "confusion"
        string_val: "congestion"
        string_val: "connected"
        string_val: "connection"
        string_val: "connections"
        string_val: "connell"
        string_val: "connery"
        string_val: "conscience"
        string_val: "conscious"
        string_val: "conscripts"
        string_val: "consensus"
        string_val: "consent"
        string_val: "consequence"
        string_val: "consequences"
        string_val: "conservative"
        string_val: "consider"
        string_val: "considerably"
        string_val: "consideration"
        string_val: "considered"
        string_val: "consigned"
        string_val: "consistent"
        string_val: "conspicuous"
        string_val: "constable"
        string_val: "constant"
        string_val: "constantly"
        string_val: "constructed"
        string_val: "construction"
        string_val: "constructive"
        string_val: "consular"
        string_val: "consult"
        string_val: "consultant"
        string_val: "consultants"
        string_val: "consultation"
        string_val: "consulted"
        string_val: "consulting"
        string_val: "consumed"
        string_val: "consumer"
        string_val: "consumers"
        string_val: "consuming"
        string_val: "consumption"
        string_val: "contact"
        string_val: "contacted"
        string_val: "contain"
        string_val: "contained"
        string_val: "contempt"
        string_val: "contender"
        string_val: "contenders"
        string_val: "content"
        string_val: "contention"
        string_val: "contentious"
        string_val: "contest"
        string_val: "contested"
        string_val: "context"
        string_val: "continue"
        string_val: "continued"
        string_val: "continues"
        string_val: "contract"
        string_val: "contractor"
        string_val: "contracts"
        string_val: "contrary"
        string_val: "contrast"
        string_val: "contrasting"
        string_val: "contribute"
        string_val: "contribution"
        string_val: "control"
        string_val: "controlled"
        string_val: "controller"
        string_val: "controllers"
        string_val: "convened"
        string_val: "conversion"
        string_val: "converted"
        string_val: "convicted"
        string_val: "conviction"
        string_val: "convictions"
        string_val: "convince"
        string_val: "convinced"
        string_val: "convincing"
        string_val: "cook"
        string_val: "cooking"
        string_val: "cool"
        string_val: "cooper"
        string_val: "cop"
        string_val: "cope"
        string_val: "copy"
        string_val: "core"
        string_val: "corner"
        string_val: "corporate"
        string_val: "correct"
        string_val: "corrected"
        string_val: "correction"
        string_val: "cost"
        string_val: "costed"
        string_val: "costs"
        string_val: "could"
        string_val: "couldnt"
        string_val: "couldve"
        string_val: "council"
        string_val: "councillor"
        string_val: "councillors"
        string_val: "councils"
        string_val: "counselling"
        string_val: "count"
        string_val: "counter"
        string_val: "counterpart"
        string_val: "countries"
        string_val: "country"
        string_val: "countrymen"
        string_val: "countryside"
        string_val: "counts"
        string_val: "couple"
        string_val: "courage"
        string_val: "course"
        string_val: "courses"
        string_val: "court"
        string_val: "courtesy"
        string_val: "courtroom"
        string_val: "cover"
        string_val: "covered"
        string_val: "covers"
        string_val: "coverup"
        string_val: "cow"
        string_val: "crack"
        string_val: "crackdown"
        string_val: "cracking"
        string_val: "craig"
        string_val: "crash"
        string_val: "crawford"
        string_val: "crazy"
        string_val: "create"
        string_val: "created"
        string_val: "creating"
        string_val: "creation"
        string_val: "creative"
        string_val: "creator"
        string_val: "credible"
        string_val: "credit"
        string_val: "creditors"
        string_val: "crest"
        string_val: "crew"
        string_val: "criminal"
        string_val: "criminals"
        string_val: "crisis"
        string_val: "criteria"
        string_val: "critical"
        string_val: "critically"
        string_val: "criticise"
        string_val: "criticised"
        string_val: "criticism"
        string_val: "critics"
        string_val: "crops"
        string_val: "cross"
        string_val: "crosscountry"
        string_val: "crossed"
        string_val: "crossfire"
        string_val: "crossroads"
        string_val: "crowd"
        string_val: "crowds"
        string_val: "crown"
        string_val: "crowning"
        string_val: "crucial"
        string_val: "crucially"
        string_val: "cruelty"
        string_val: "crunch"
        string_val: "cry"
        string_val: "crystal"
        string_val: "cull"
        string_val: "culpable"
        string_val: "culture"
        string_val: "cultures"
        string_val: "cup"
        string_val: "curious"
        string_val: "currency"
        string_val: "current"
        string_val: "currently"
        string_val: "curse"
        string_val: "curve"
        string_val: "customer"
        string_val: "customers"
        string_val: "cut"
        string_val: "cuts"
        string_val: "cutting"
        string_val: "cycle"
        string_val: "cycling"
        string_val: "cynical"
        string_val: "dad"
        string_val: "daily"
        string_val: "dairy"
        string_val: "daly"
        string_val: "damage"
        string_val: "damaged"
        string_val: "damages"
        string_val: "damaging"
        string_val: "dance"
        string_val: "dancer"
        string_val: "dancers"
        string_val: "dancing"
        string_val: "danger"
        string_val: "dangerous"
        string_val: "dangers"
        string_val: "danish"
        string_val: "danny"
        string_val: "dark"
        string_val: "darling"
        string_val: "darrell"
        string_val: "darren"
        string_val: "data"
        string_val: "database"
        string_val: "date"
        string_val: "daughter"
        string_val: "david"
        string_val: "davies"
        string_val: "davis"
        string_val: "dawson"
        string_val: "day"
        string_val: "days"
        string_val: "daytime"
        string_val: "daytoday"
        string_val: "de"
        string_val: "deacon"
        string_val: "dead"
        string_val: "deadline"
        string_val: "deadly"
        string_val: "deal"
        string_val: "dealer"
        string_val: "dealers"
        string_val: "dealing"
        string_val: "deals"
        string_val: "dealt"
        string_val: "death"
        string_val: "debate"
        string_val: "debated"
        string_val: "debbie"
        string_val: "debt"
        string_val: "debut"
        string_val: "decade"
        string_val: "decades"
        string_val: "deceit"
        string_val: "december"
        string_val: "decent"
        string_val: "deception"
        string_val: "decide"
        string_val: "decided"
        string_val: "decides"
        string_val: "deciding"
        string_val: "decision"
        string_val: "decisions"
        string_val: "decisive"
        string_val: "declare"
        string_val: "declared"
        string_val: "decline"
        string_val: "declined"
        string_val: "declining"
        string_val: "deep"
        string_val: "deeply"
        string_val: "default"
        string_val: "defeat"
        string_val: "defeated"
        string_val: "defeats"
        string_val: "defence"
        string_val: "defences"
        string_val: "defend"
        string_val: "defended"
        string_val: "defender"
        string_val: "defending"
        string_val: "defensive"
        string_val: "deferred"
        string_val: "defiance"
        string_val: "defiant"
        string_val: "deficit"
        string_val: "defies"
        string_val: "defined"
        string_val: "defining"
        string_val: "definite"
        string_val: "degree"
        string_val: "degrees"
        string_val: "deja"
        string_val: "dejected"
        string_val: "delay"
        string_val: "delaying"
        string_val: "delicate"
        string_val: "delight"
        string_val: "delighted"
        string_val: "delightful"
        string_val: "deliver"
        string_val: "delivered"
        string_val: "demand"
        string_val: "demanded"
        string_val: "demanding"
        string_val: "demands"
        string_val: "demeaning"
        string_val: "demeanour"
        string_val: "demented"
        string_val: "demise"
        string_val: "democrat"
        string_val: "democrats"
        string_val: "demolished"
        string_val: "denial"
        string_val: "denied"
        string_val: "dennis"
        string_val: "denounced"
        string_val: "deny"
        string_val: "denying"
        string_val: "department"
        string_val: "departments"
        string_val: "departure"
        string_val: "depend"
        string_val: "dependent"
        string_val: "depends"
        string_val: "depleted"
        string_val: "deployed"
        string_val: "deported"
        string_val: "depressed"
        string_val: "depressing"
        string_val: "depression"
        string_val: "depth"
        string_val: "deputy"
        string_val: "derailment"
        string_val: "derby"
        string_val: "derek"
        string_val: "descent"
        string_val: "describe"
        string_val: "described"
        string_val: "describes"
        string_val: "description"
        string_val: "desert"
        string_val: "deserted"
        string_val: "deserve"
        string_val: "deserved"
        string_val: "deserves"
        string_val: "design"
        string_val: "designed"
        string_val: "designers"
        string_val: "desire"
        string_val: "desired"
        string_val: "desperate"
        string_val: "desperately"
        string_val: "despite"
        string_val: "despondent"
        string_val: "destiny"
        string_val: "destroy"
        string_val: "destroyed"
        string_val: "destroying"
        string_val: "destruction"
        string_val: "detail"
        string_val: "detailed"
        string_val: "details"
        string_val: "detained"
        string_val: "detection"
        string_val: "detectives"
        string_val: "deteriorated"
        string_val: "determine"
        string_val: "determined"
        string_val: "develop"
        string_val: "developed"
        string_val: "development"
        string_val: "device"
        string_val: "devices"
        string_val: "devil"
        string_val: "devolved"
        string_val: "devon"
        string_val: "devoted"
        string_val: "devotion"
        string_val: "dewar"
        string_val: "diagnosed"
        string_val: "diagnosis"
        string_val: "dialogue"
        string_val: "dick"
        string_val: "dickens"
        string_val: "dictator"
        string_val: "did"
        string_val: "didnt"
        string_val: "die"
        string_val: "died"
        string_val: "diego"
        string_val: "differ"
        string_val: "differed"
        string_val: "difference"
        string_val: "differences"
        string_val: "different"
        string_val: "differently"
        string_val: "difficult"
        string_val: "digital"
        string_val: "dignity"
        string_val: "dilemma"
        string_val: "diligent"
        string_val: "dimensions"
        string_val: "diminished"
        string_val: "dining"
        string_val: "dinner"
        string_val: "dip"
        string_val: "direct"
        string_val: "direction"
        string_val: "directions"
        string_val: "director"
        string_val: "directors"
        string_val: "dirty"
        string_val: "disabled"
        string_val: "disagree"
        string_val: "disappear"
        string_val: "disappeared"
        string_val: "disappoint"
        string_val: "disappointed"
        string_val: "disappointing"
        string_val: "disarerry"
        string_val: "disarming"
        string_val: "disarray"
        string_val: "disaster"
        string_val: "disastrous"
        string_val: "disbelief"
        string_val: "discharged"
        string_val: "discipline"
        string_val: "disciplined"
        string_val: "disciplines"
        string_val: "disclosed"
        string_val: "discontent"
        string_val: "discounting"
        string_val: "discourage"
        string_val: "discovered"
        string_val: "discrimination"
        string_val: "discuss"
        string_val: "discussed"
        string_val: "discussion"
        string_val: "discussions"
        string_val: "disease"
        string_val: "disgrace"
        string_val: "disgraceful"
        string_val: "disgusted"
        string_val: "disgusting"
        string_val: "dismal"
        string_val: "dismissal"
        string_val: "dismissed"
        string_val: "dismissive"
        string_val: "dispersal"
        string_val: "display"
        string_val: "displays"
        string_val: "disposal"
        string_val: "disposals"
        string_val: "dispute"
        string_val: "disputed"
        string_val: "disquiet"
        string_val: "disrepute"
        string_val: "disruption"
        string_val: "dissent"
        string_val: "disservice"
        string_val: "dissolve"
        string_val: "distance"
        string_val: "distances"
        string_val: "distancing"
        string_val: "distinction"
        string_val: "distinctive"
        string_val: "distorted"
        string_val: "distortion"
        string_val: "distressing"
        string_val: "district"
        string_val: "districts"
        string_val: "disturbance"
        string_val: "disturbed"
        string_val: "disturbing"
        string_val: "dithering"
        string_val: "diva"
        string_val: "diverse"
        string_val: "diversions"
        string_val: "divert"
        string_val: "divided"
        string_val: "dividend"
        string_val: "dividends"
        string_val: "diving"
        string_val: "division"
        string_val: "divorce"
        string_val: "divorced"
        string_val: "dizzy"
        string_val: "do"
        string_val: "dobson"
        string_val: "docherty"
        string_val: "doctor"
        string_val: "doctors"
        string_val: "document"
        string_val: "dodds"
        string_val: "does"
        string_val: "doesnt"
        string_val: "dog"
        string_val: "doing"
        string_val: "dollar"
        string_val: "dollars"
        string_val: "dome"
        string_val: "domestic"
        string_val: "dominant"
        string_val: "don"
        string_val: "donald"
        string_val: "donation"
        string_val: "done"
        string_val: "dont"
        string_val: "door"
        string_val: "double"
        string_val: "doubled"
        string_val: "doubt"
        string_val: "doubtful"
        string_val: "dow"
        string_val: "down"
        string_val: "downbeat"
        string_val: "downgrade"
        string_val: "downgrading"
        string_val: "downing"
        string_val: "downside"
        string_val: "downturn"
        string_val: "downward"
        string_val: "drama"
        string_val: "dramatic"
        string_val: "draw"
        string_val: "drawback"
        string_val: "drawing"
        string_val: "drawn"
        string_val: "dreadful"
        string_val: "dream"
        string_val: "dress"
        string_val: "dressing"
        string_val: "drink"
        string_val: "drinking"
        string_val: "drive"
        string_val: "driven"
        string_val: "driver"
        string_val: "drivers"
        string_val: "driving"
        string_val: "drop"
        string_val: "dropped"
        string_val: "drops"
        string_val: "drove"
        string_val: "drug"
        string_val: "drugs"
        string_val: "dublin"
        string_val: "due"
        string_val: "duke"
        string_val: "dumfries"
        string_val: "duncan"
        string_val: "dundee"
        string_val: "dunfermline"
        string_val: "during"
        string_val: "dutch"
        string_val: "dutchman"
        string_val: "duties"
        string_val: "duty"
        string_val: "dying"
        string_val: "dylan"
        string_val: "dylans"
        string_val: "dynamic"
        string_val: "dynamics"
        string_val: "e"
        string_val: "each"
        string_val: "earlier"
        string_val: "early"
        string_val: "earned"
        string_val: "earth"
        string_val: "easier"
        string_val: "easily"
        string_val: "east"
        string_val: "easter"
        string_val: "eastern"
        string_val: "easy"
        string_val: "eat"
        string_val: "eating"
        string_val: "echo"
        string_val: "echoed"
        string_val: "economic"
        string_val: "economy"
        string_val: "ecstatic"
        string_val: "eden"
        string_val: "edge"
        string_val: "edges"
        string_val: "edinburgh"
        string_val: "edited"
        string_val: "editor"
        string_val: "edmonton"
        string_val: "education"
        string_val: "effect"
        string_val: "effective"
        string_val: "effects"
        string_val: "effort"
        string_val: "efforts"
        string_val: "ego"
        string_val: "egypt"
        string_val: "eight"
        string_val: "eighties"
        string_val: "either"
        string_val: "elan"
        string_val: "elderly"
        string_val: "elected"
        string_val: "election"
        string_val: "elections"
        string_val: "electors"
        string_val: "electric"
        string_val: "electricity"
        string_val: "element"
        string_val: "elements"
        string_val: "eleven"
        string_val: "elgin"
        string_val: "elliot"
        string_val: "else"
        string_val: "elsewhere"
        string_val: "eluded"
        string_val: "elusive"
        string_val: "email"
        string_val: "embargo"
        string_val: "embarrassed"
        string_val: "embassy"
        string_val: "emerge"
        string_val: "emerged"
        string_val: "emergency"
        string_val: "emerges"
        string_val: "emerging"
        string_val: "emi"
        string_val: "emotionally"
        string_val: "emotions"
        string_val: "emphasis"
        string_val: "emphasise"
        string_val: "emphasised"
        string_val: "empire"
        string_val: "employed"
        string_val: "employee"
        string_val: "employees"
        string_val: "employer"
        string_val: "employers"
        string_val: "employment"
        string_val: "empowering"
        string_val: "empty"
        string_val: "emu"
        string_val: "emulate"
        string_val: "enabled"
        string_val: "encore"
        string_val: "encounter"
        string_val: "encourage"
        string_val: "encouraged"
        string_val: "end"
        string_val: "endangered"
        string_val: "endeavour"
        string_val: "ended"
        string_val: "endemic"
        string_val: "ending"
        string_val: "endorse"
        string_val: "endorsed"
        string_val: "ends"
        string_val: "endurance"
        string_val: "endure"
        string_val: "enduring"
        string_val: "enemies"
        string_val: "enemy"
        string_val: "energies"
        string_val: "energised"
        string_val: "energy"
        string_val: "enforce"
        string_val: "enforced"
        string_val: "enforcement"
        string_val: "engage"
        string_val: "engaged"
        string_val: "engaging"
        string_val: "engineer"
        string_val: "england"
        string_val: "english"
        string_val: "enhanced"
        string_val: "enjoy"
        string_val: "enjoyable"
        string_val: "enjoyed"
        string_val: "enjoying"
        string_val: "enormous"
        string_val: "enough"
        string_val: "ensure"
        string_val: "enter"
        string_val: "enterprise"
        string_val: "entertain"
        string_val: "entertained"
        string_val: "enthralling"
        string_val: "entirely"
        string_val: "entitled"
        string_val: "entrance"
        string_val: "entrapment"
        string_val: "entries"
        string_val: "entry"
        string_val: "envelope"
        string_val: "envious"
        string_val: "environment"
        string_val: "environmental"
        string_val: "epic"
        string_val: "episode"
        string_val: "equal"
        string_val: "equally"
        string_val: "equals"
        string_val: "equation"
        string_val: "equipment"
        string_val: "equipped"
        string_val: "equity"
        string_val: "era"
        string_val: "erased"
        string_val: "eriksson"
        string_val: "erotic"
        string_val: "error"
        string_val: "errors"
        string_val: "escape"
        string_val: "escaped"
        string_val: "escaping"
        string_val: "essence"
        string_val: "essential"
        string_val: "establish"
        string_val: "established"
        string_val: "estate"
        string_val: "ethic"
        string_val: "ethical"
        string_val: "ethics"
        string_val: "ethos"
        string_val: "euphoric"
        string_val: "euro"
        string_val: "europe"
        string_val: "european"
        string_val: "euros"
        string_val: "even"
        string_val: "evening"
        string_val: "evenly"
        string_val: "event"
        string_val: "eventful"
        string_val: "events"
        string_val: "ever"
        string_val: "every"
        string_val: "everyone"
        string_val: "everyones"
        string_val: "everything"
        string_val: "everywhere"
        string_val: "evicted"
        string_val: "eviction"
        string_val: "evidence"
        string_val: "evident"
        string_val: "evil"
        string_val: "evolving"
        string_val: "exacting"
        string_val: "exactly"
        string_val: "example"
        string_val: "examples"
        string_val: "exams"
        string_val: "excel"
        string_val: "excellent"
        string_val: "except"
        string_val: "exception"
        string_val: "exceptions"
        string_val: "excess"
        string_val: "exchange"
        string_val: "excited"
        string_val: "excitement"
        string_val: "exciting"
        string_val: "excluded"
        string_val: "excluding"
        string_val: "excuse"
        string_val: "excuses"
        string_val: "executive"
        string_val: "exercise"
        string_val: "exhausted"
        string_val: "exhaustive"
        string_val: "exist"
        string_val: "existed"
        string_val: "existence"
        string_val: "existing"
        string_val: "exists"
        string_val: "expand"
        string_val: "expanded"
        string_val: "expansion"
        string_val: "expansions"
        string_val: "expect"
        string_val: "expectations"
        string_val: "expected"
        string_val: "expense"
        string_val: "expenses"
        string_val: "expensive"
        string_val: "experience"
        string_val: "experienced"
        string_val: "expert"
        string_val: "expertise"
        string_val: "experts"
        string_val: "explain"
        string_val: "explained"
        string_val: "explains"
        string_val: "explanation"
        string_val: "explode"
        string_val: "exploding"
        string_val: "exploited"
        string_val: "explored"
        string_val: "explosion"
        string_val: "explosive"
        string_val: "export"
        string_val: "exposure"
        string_val: "express"
        string_val: "expressed"
        string_val: "expression"
        string_val: "expressions"
        string_val: "expressive"
        string_val: "expulsion"
        string_val: "extended"
        string_val: "extension"
        string_val: "extent"
        string_val: "external"
        string_val: "extinction"
        string_val: "extra"
        string_val: "extraordinary"
        string_val: "extreme"
        string_val: "extremely"
        string_val: "eye"
        string_val: "eyeing"
        string_val: "eyes"
        string_val: "eyesight"
        string_val: "face"
        string_val: "faceless"
        string_val: "faces"
        string_val: "facing"
        string_val: "fact"
        string_val: "factor"
        string_val: "factors"
        string_val: "facts"
        string_val: "fail"
        string_val: "failed"
        string_val: "failing"
        string_val: "failings"
        string_val: "failure"
        string_val: "failures"
        string_val: "fair"
        string_val: "fairly"
        string_val: "fairy"
        string_val: "faith"
        string_val: "fake"
        string_val: "falklands"
        string_val: "fall"
        string_val: "fallen"
        string_val: "falling"
        string_val: "falls"
        string_val: "fame"
        string_val: "familiar"
        string_val: "families"
        string_val: "family"
        string_val: "famous"
        string_val: "famously"
        string_val: "fan"
        string_val: "fancy"
        string_val: "fans"
        string_val: "fantastic"
        string_val: "fantasy"
        string_val: "far"
        string_val: "farce"
        string_val: "farewell"
        string_val: "farm"
        string_val: "farmer"
        string_val: "farmers"
        string_val: "farming"
        string_val: "fashion"
        string_val: "fast"
        string_val: "fatal"
        string_val: "fate"
        string_val: "father"
        string_val: "fatherhood"
        string_val: "fathom"
        string_val: "fatigue"
        string_val: "fault"
        string_val: "favour"
        string_val: "favourite"
        string_val: "favourites"
        string_val: "fbi"
        string_val: "fear"
        string_val: "feared"
        string_val: "feasible"
        string_val: "feature"
        string_val: "february"
        string_val: "fee"
        string_val: "feed"
        string_val: "feedback"
        string_val: "feel"
        string_val: "feeling"
        string_val: "feels"
        string_val: "fees"
        string_val: "feet"
        string_val: "fein"
        string_val: "fell"
        string_val: "fellowship"
        string_val: "felt"
        string_val: "female"
        string_val: "fenwick"
        string_val: "ferguson"
        string_val: "fergusons"
        string_val: "fernandez"
        string_val: "ferris"
        string_val: "festival"
        string_val: "festivals"
        string_val: "few"
        string_val: "fewer"
        string_val: "fiasco"
        string_val: "fickle"
        string_val: "field"
        string_val: "fields"
        string_val: "fiery"
        string_val: "fife"
        string_val: "fifteen"
        string_val: "fifth"
        string_val: "fight"
        string_val: "fighter"
        string_val: "fighting"
        string_val: "figure"
        string_val: "figures"
        string_val: "film"
        string_val: "filmed"
        string_val: "films"
        string_val: "filtering"
        string_val: "final"
        string_val: "finale"
        string_val: "finalised"
        string_val: "finally"
        string_val: "finals"
        string_val: "finance"
        string_val: "financed"
        string_val: "finances"
        string_val: "financial"
        string_val: "find"
        string_val: "finding"
        string_val: "findings"
        string_val: "finds"
        string_val: "fine"
        string_val: "finger"
        string_val: "fingers"
        string_val: "finish"
        string_val: "finished"
        string_val: "finisher"
        string_val: "finishing"
        string_val: "finland"
        string_val: "finnie"
        string_val: "fir"
        string_val: "fire"
        string_val: "firearm"
        string_val: "fired"
        string_val: "firefighter"
        string_val: "firm"
        string_val: "firmly"
        string_val: "first"
        string_val: "fisher"
        string_val: "fishermen"
        string_val: "fishing"
        string_val: "fit"
        string_val: "fitness"
        string_val: "fitting"
        string_val: "five"
        string_val: "fiveday"
        string_val: "fiver"
        string_val: "fix"
        string_val: "fixed"
        string_val: "fixes"
        string_val: "fixture"
        string_val: "flames"
        string_val: "flanker"
        string_val: "flashpoint"
        string_val: "flashy"
        string_val: "flat"
        string_val: "flats"
        string_val: "flawed"
        string_val: "fled"
        string_val: "flexible"
        string_val: "flight"
        string_val: "floating"
        string_val: "flooded"
        string_val: "floods"
        string_val: "floor"
        string_val: "florida"
        string_val: "flotation"
        string_val: "flourishing"
        string_val: "flow"
        string_val: "flowers"
        string_val: "flu"
        string_val: "fly"
        string_val: "focus"
        string_val: "focused"
        string_val: "folk"
        string_val: "follow"
        string_val: "followed"
        string_val: "following"
        string_val: "follows"
        string_val: "food"
        string_val: "foods"
        string_val: "fool"
        string_val: "foolhardy"
        string_val: "foolish"
        string_val: "foolishly"
        string_val: "foot"
        string_val: "footandmouth"
        string_val: "football"
        string_val: "footballer"
        string_val: "footballers"
        string_val: "for"
        string_val: "forbidden"
        string_val: "force"
        string_val: "forced"
        string_val: "forces"
        string_val: "fore"
        string_val: "forecast"
        string_val: "foreign"
        string_val: "foremost"
        string_val: "foretell"
        string_val: "forever"
        string_val: "forget"
        string_val: "forgive"
        string_val: "forgiven"
        string_val: "forgiveness"
        string_val: "forgot"
        string_val: "form"
        string_val: "formal"
        string_val: "formally"
        string_val: "format"
        string_val: "formation"
        string_val: "formed"
        string_val: "former"
        string_val: "forms"
        string_val: "formula"
        string_val: "forrester"
        string_val: "forthcoming"
        string_val: "fortnight"
        string_val: "fortunate"
        string_val: "fortune"
        string_val: "forward"
        string_val: "forwards"
        string_val: "fossil"
        string_val: "foster"
        string_val: "fought"
        string_val: "foul"
        string_val: "found"
        string_val: "foundations"
        string_val: "four"
        string_val: "fourth"
        string_val: "fouryear"
        string_val: "frame"
        string_val: "france"
        string_val: "franchise"
        string_val: "frank"
        string_val: "frankfurt"
        string_val: "frankly"
        string_val: "freaks"
        string_val: "free"
        string_val: "freedom"
        string_val: "freeforall"
        string_val: "french"
        string_val: "frenchman"
        string_val: "fresh"
        string_val: "friday"
        string_val: "friend"
        string_val: "friendly"
        string_val: "friends"
        string_val: "friendship"
        string_val: "fright"
        string_val: "frightened"
        string_val: "frightening"
        string_val: "frog"
        string_val: "from"
        string_val: "front"
        string_val: "frosty"
        string_val: "frustrated"
        string_val: "frustrating"
        string_val: "frustration"
        string_val: "frustrations"
        string_val: "fuel"
        string_val: "fulfilled"
        string_val: "fulfilment"
        string_val: "full"
        string_val: "fullscale"
        string_val: "fulltime"
        string_val: "fully"
        string_val: "fun"
        string_val: "function"
        string_val: "fund"
        string_val: "funded"
        string_val: "funding"
        string_val: "funds"
        string_val: "funny"
        string_val: "furious"
        string_val: "further"
        string_val: "fuss"
        string_val: "future"
        string_val: "futures"
        string_val: "gaelic"
        string_val: "gaffer"
        string_val: "gain"
        string_val: "gains"
        string_val: "galleries"
        string_val: "gallery"
        string_val: "galloway"
        string_val: "gamble"
        string_val: "gambling"
        string_val: "game"
        string_val: "games"
        string_val: "gap"
        string_val: "garage"
        string_val: "garcia"
        string_val: "garden"
        string_val: "gary"
        string_val: "gas"
        string_val: "gates"
        string_val: "gateway"
        string_val: "gave"
        string_val: "general"
        string_val: "generally"
        string_val: "generations"
        string_val: "generous"
        string_val: "genetic"
        string_val: "genius"
        string_val: "genocide"
        string_val: "genuine"
        string_val: "geoffrey"
        string_val: "george"
        string_val: "gerhard"
        string_val: "german"
        string_val: "germany"
        string_val: "gesture"
        string_val: "gestures"
        string_val: "get"
        string_val: "gets"
        string_val: "getting"
        string_val: "gift"
        string_val: "gigantic"
        string_val: "gilbert"
        string_val: "gimmick"
        string_val: "girl"
        string_val: "girlfriend"
        string_val: "girls"
        string_val: "give"
        string_val: "given"
        string_val: "gives"
        string_val: "giving"
        string_val: "glad"
        string_val: "glasgow"
        string_val: "glass"
        string_val: "global"
        string_val: "glory"
        string_val: "gm"
        string_val: "go"
        string_val: "goal"
        string_val: "goalkeeper"
        string_val: "goalposts"
        string_val: "goals"
        string_val: "god"
        string_val: "godfather"
        string_val: "gods"
        string_val: "goes"
        string_val: "going"
        string_val: "gold"
        string_val: "golden"
        string_val: "golf"
        string_val: "gomez"
        string_val: "gone"
        string_val: "gonna"
        string_val: "good"
        string_val: "goodbye"
        string_val: "goodness"
        string_val: "goods"
        string_val: "goodwill"
        string_val: "gordon"
        string_val: "got"
        string_val: "gotten"
        string_val: "government"
        string_val: "governments"
        string_val: "governors"
        string_val: "grabs"
        string_val: "grade"
        string_val: "graeme"
        string_val: "graham"
        string_val: "grail"
        string_val: "grampian"
        string_val: "grand"
        string_val: "granddaughter"
        string_val: "grandfather"
        string_val: "grandmother"
        string_val: "grandparents"
        string_val: "grandson"
        string_val: "grant"
        string_val: "granted"
        string_val: "grass"
        string_val: "grassroots"
        string_val: "grateful"
        string_val: "graves"
        string_val: "great"
        string_val: "greater"
        string_val: "greatest"
        string_val: "greatly"
        string_val: "greeks"
        string_val: "green"
        string_val: "greens"
        string_val: "greenwood"
        string_val: "grew"
        string_val: "grey"
        string_val: "grid"
        string_val: "grief"
        string_val: "grip"
        string_val: "ground"
        string_val: "grounds"
        string_val: "group"
        string_val: "groups"
        string_val: "grow"
        string_val: "growing"
        string_val: "grown"
        string_val: "growth"
        string_val: "guarantee"
        string_val: "guaranteed"
        string_val: "guard"
        string_val: "guess"
        string_val: "guest"
        string_val: "guidelines"
        string_val: "guilt"
        string_val: "guilty"
        string_val: "guitarist"
        string_val: "gulf"
        string_val: "gun"
        string_val: "guy"
        string_val: "guys"
        string_val: "habit"
        string_val: "had"
        string_val: "hadnt"
        string_val: "hague"
        string_val: "hair"
        string_val: "hairdresser"
        string_val: "half"
        string_val: "halfdozen"
        string_val: "halftime"
        string_val: "halifax"
        string_val: "hall"
        string_val: "halted"
        string_val: "ham"
        string_val: "hamilton"
        string_val: "hammer"
        string_val: "hammering"
        string_val: "hand"
        string_val: "handcuffed"
        string_val: "handed"
        string_val: "handful"
        string_val: "handle"
        string_val: "handled"
        string_val: "handling"
        string_val: "hands"
        string_val: "handsome"
        string_val: "handwriting"
        string_val: "hang"
        string_val: "happen"
        string_val: "happened"
        string_val: "happening"
        string_val: "happens"
        string_val: "happiest"
        string_val: "happily"
        string_val: "happiness"
        string_val: "happy"
        string_val: "hard"
        string_val: "hardly"
        string_val: "harm"
        string_val: "harold"
        string_val: "harrowing"
        string_val: "harry"
        string_val: "hartley"
        string_val: "has"
        string_val: "hash"
        string_val: "hasnt"
        string_val: "hassle"
        string_val: "hastings"
        string_val: "hat"
        string_val: "hate"
        string_val: "haul"
        string_val: "have"
        string_val: "havent"
        string_val: "having"
        string_val: "he"
        string_val: "head"
        string_val: "headache"
        string_val: "headed"
        string_val: "heading"
        string_val: "headless"
        string_val: "headmaster"
        string_val: "headquarters"
        string_val: "heads"
        string_val: "headteacher"
        string_val: "headteachers"
        string_val: "heal"
        string_val: "healing"
        string_val: "health"
        string_val: "healthy"
        string_val: "hear"
        string_val: "heard"
        string_val: "hearing"
        string_val: "heart"
        string_val: "heartbreaking"
        string_val: "hearts"
        string_val: "heat"
        string_val: "heaven"
        string_val: "heavily"
        string_val: "heavy"
        string_val: "hebrews"
        string_val: "hed"
        string_val: "held"
        string_val: "hell"
        string_val: "helmet"
        string_val: "help"
        string_val: "helped"
        string_val: "helpful"
        string_val: "helping"
        string_val: "helpless"
        string_val: "helpline"
        string_val: "helps"
        string_val: "helsinki"
        string_val: "henman"
        string_val: "henry"
        string_val: "her"
        string_val: "herald"
        string_val: "herd"
        string_val: "here"
        string_val: "heres"
        string_val: "heritage"
        string_val: "hero"
        string_val: "heroes"
        string_val: "heroin"
        string_val: "heroine"
        string_val: "hes"
        string_val: "hesitate"
        string_val: "hibs"
        string_val: "hidden"
        string_val: "hide"
        string_val: "hiding"
        string_val: "high"
        string_val: "highest"
        string_val: "highland"
        string_val: "highlands"
        string_val: "highlight"
        string_val: "highlighted"
        string_val: "highlights"
        string_val: "highly"
        string_val: "hijacked"
        string_val: "hill"
        string_val: "hillary"
        string_val: "hills"
        string_val: "him"
        string_val: "himself"
        string_val: "hindsight"
        string_val: "hint"
        string_val: "his"
        string_val: "historic"
        string_val: "historical"
        string_val: "history"
        string_val: "hit"
        string_val: "hitches"
        string_val: "hobbies"
        string_val: "hold"
        string_val: "holding"
        string_val: "hole"
        string_val: "holiday"
        string_val: "holidays"
        string_val: "holland"
        string_val: "hollywood"
        string_val: "holy"
        string_val: "holyrood"
        string_val: "home"
        string_val: "homegrown"
        string_val: "homeland"
        string_val: "homeless"
        string_val: "homes"
        string_val: "homework"
        string_val: "homicide"
        string_val: "honest"
        string_val: "honestly"
        string_val: "honesty"
        string_val: "honour"
        string_val: "honoured"
        string_val: "hoops"
        string_val: "hope"
        string_val: "hoped"
        string_val: "hopeful"
        string_val: "hopefully"
        string_val: "hopeless"
        string_val: "hopelessly"
        string_val: "hopes"
        string_val: "horizon"
        string_val: "horrible"
        string_val: "horrific"
        string_val: "horrified"
        string_val: "horror"
        string_val: "horse"
        string_val: "horses"
        string_val: "hospice"
        string_val: "hospital"
        string_val: "hospitals"
        string_val: "hostel"
        string_val: "hostile"
        string_val: "hot"
        string_val: "hotel"
        string_val: "hotels"
        string_val: "hour"
        string_val: "hours"
        string_val: "house"
        string_val: "housebreaking"
        string_val: "housekeeper"
        string_val: "housing"
        string_val: "how"
        string_val: "however"
        string_val: "huge"
        string_val: "hugely"
        string_val: "human"
        string_val: "humans"
        string_val: "humbling"
        string_val: "humour"
        string_val: "hundred"
        string_val: "hung"
        string_val: "hungry"
        string_val: "hurdle"
        string_val: "hurry"
        string_val: "hurt"
        string_val: "husband"
        string_val: "hussein"
        string_val: "hustings"
        string_val: "hutchison"
        string_val: "hype"
        string_val: "hysteria"
        string_val: "i"
        string_val: "iain"
        string_val: "ian"
        string_val: "iceberg"
        string_val: "icing"
        string_val: "id"
        string_val: "idea"
        string_val: "ideal"
        string_val: "ideally"
        string_val: "ideas"
        string_val: "idiot"
        string_val: "if"
        string_val: "ignore"
        string_val: "ignored"
        string_val: "ignores"
        string_val: "ignoring"
        string_val: "ill"
        string_val: "illegal"
        string_val: "illness"
        string_val: "illusion"
        string_val: "illusions"
        string_val: "im"
        string_val: "image"
        string_val: "images"
        string_val: "imagine"
        string_val: "immediate"
        string_val: "immense"
        string_val: "immensely"
        string_val: "immune"
        string_val: "impact"
        string_val: "impaired"
        string_val: "impartial"
        string_val: "impasse"
        string_val: "impassioned"
        string_val: "impatience"
        string_val: "impatient"
        string_val: "impeded"
        string_val: "important"
        string_val: "imports"
        string_val: "impose"
        string_val: "imposing"
        string_val: "impress"
        string_val: "impressed"
        string_val: "impressing"
        string_val: "impression"
        string_val: "impressive"
        string_val: "improve"
        string_val: "improved"
        string_val: "improvement"
        string_val: "improvements"
        string_val: "improving"
        string_val: "impulse"
        string_val: "impulsive"
        string_val: "in"
        string_val: "incentive"
        string_val: "incidence"
        string_val: "incident"
        string_val: "incidents"
        string_val: "incitement"
        string_val: "include"
        string_val: "included"
        string_val: "includes"
        string_val: "including"
        string_val: "inclusion"
        string_val: "inclusive"
        string_val: "income"
        string_val: "incoming"
        string_val: "incongruous"
        string_val: "incorrect"
        string_val: "increase"
        string_val: "increased"
        string_val: "increases"
        string_val: "increasing"
        string_val: "indeed"
        string_val: "independent"
        string_val: "index"
        string_val: "india"
        string_val: "indicate"
        string_val: "indicated"
        string_val: "indicates"
        string_val: "individual"
        string_val: "indoors"
        string_val: "industrial"
        string_val: "industry"
        string_val: "inevitable"
        string_val: "infants"
        string_val: "infection"
        string_val: "infectious"
        string_val: "inflation"
        string_val: "influence"
        string_val: "influenced"
        string_val: "information"
        string_val: "informed"
        string_val: "ingenious"
        string_val: "inherent"
        string_val: "inherited"
        string_val: "initial"
        string_val: "initiated"
        string_val: "injected"
        string_val: "injecting"
        string_val: "injection"
        string_val: "injured"
        string_val: "injuries"
        string_val: "injury"
        string_val: "inmates"
        string_val: "innings"
        string_val: "innocence"
        string_val: "innocent"
        string_val: "input"
        string_val: "inquiries"
        string_val: "inquiry"
        string_val: "inroads"
        string_val: "inside"
        string_val: "insider"
        string_val: "insisted"
        string_val: "insists"
        string_val: "inspector"
        string_val: "inspectors"
        string_val: "inspired"
        string_val: "inspiring"
        string_val: "instalment"
        string_val: "instance"
        string_val: "instant"
        string_val: "instantly"
        string_val: "instead"
        string_val: "instinctive"
        string_val: "instincts"
        string_val: "institute"
        string_val: "instructed"
        string_val: "instructions"
        string_val: "instrument"
        string_val: "insult"
        string_val: "insulting"
        string_val: "insurance"
        string_val: "insured"
        string_val: "integral"
        string_val: "intend"
        string_val: "intended"
        string_val: "intends"
        string_val: "intense"
        string_val: "intensive"
        string_val: "intent"
        string_val: "intention"
        string_val: "intentions"
        string_val: "intents"
        string_val: "interest"
        string_val: "interested"
        string_val: "interesting"
        string_val: "interests"
        string_val: "interfere"
        string_val: "interim"
        string_val: "interior"
        string_val: "internal"
        string_val: "international"
        string_val: "internet"
        string_val: "interval"
        string_val: "intervene"
        string_val: "interview"
        string_val: "interviewed"
        string_val: "interviews"
        string_val: "intimate"
        string_val: "into"
        string_val: "intricate"
        string_val: "intriguing"
        string_val: "introduce"
        string_val: "introduced"
        string_val: "intrusion"
        string_val: "intrusive"
        string_val: "invasion"
        string_val: "invented"
        string_val: "inventive"
        string_val: "inventories"
        string_val: "inverness"
        string_val: "invest"
        string_val: "invested"
        string_val: "investigation"
        string_val: "investing"
        string_val: "investment"
        string_val: "investments"
        string_val: "investor"
        string_val: "investors"
        string_val: "invited"
        string_val: "involved"
        string_val: "involvement"
        string_val: "involving"
        string_val: "iona"
        string_val: "ira"
        string_val: "iran"
        string_val: "iraq"
        string_val: "iraqi"
        string_val: "ireland"
        string_val: "irish"
        string_val: "irishmen"
        string_val: "irony"
        string_val: "irrational"
        string_val: "irvine"
        string_val: "is"
        string_val: "islam"
        string_val: "island"
        string_val: "isles"
        string_val: "isnt"
        string_val: "israel"
        string_val: "israeli"
        string_val: "issue"
        string_val: "issued"
        string_val: "issues"
        string_val: "it"
        string_val: "italian"
        string_val: "italy"
        string_val: "item"
        string_val: "items"
        string_val: "itll"
        string_val: "its"
        string_val: "itself"
        string_val: "itss"
        string_val: "ive"
        string_val: "ivory"
        string_val: "jack"
        string_val: "jackie"
        string_val: "jackson"
        string_val: "jacques"
        string_val: "jail"
        string_val: "jailed"
        string_val: "jailing"
        string_val: "jamming"
        string_val: "january"
        string_val: "japan"
        string_val: "jazz"
        string_val: "jealousy"
        string_val: "jeremy"
        string_val: "jersey"
        string_val: "jews"
        string_val: "jigsaw"
        string_val: "jim"
        string_val: "jimmy"
        string_val: "job"
        string_val: "jobs"
        string_val: "jock"
        string_val: "john"
        string_val: "johnny"
        string_val: "johnsen"
        string_val: "johnson"
        string_val: "johnston"
        string_val: "johnstone"
        string_val: "join"
        string_val: "joined"
        string_val: "joiner"
        string_val: "joint"
        string_val: "joke"
        string_val: "joked"
        string_val: "jolly"
        string_val: "jon"
        string_val: "jones"
        string_val: "jonny"
        string_val: "journal"
        string_val: "journalist"
        string_val: "journalists"
        string_val: "journey"
        string_val: "joy"
        string_val: "jubilee"
        string_val: "judge"
        string_val: "judged"
        string_val: "judges"
        string_val: "judgment"
        string_val: "judicial"
        string_val: "judith"
        string_val: "july"
        string_val: "jumped"
        string_val: "june"
        string_val: "junior"
        string_val: "jury"
        string_val: "just"
        string_val: "justice"
        string_val: "justified"
        string_val: "justify"
        string_val: "kabul"
        string_val: "keane"
        string_val: "keegan"
        string_val: "keen"
        string_val: "keep"
        string_val: "keeping"
        string_val: "kennedy"
        string_val: "kenny"
        string_val: "kent"
        string_val: "kept"
        string_val: "kevin"
        string_val: "key"
        string_val: "keynote"
        string_val: "kick"
        string_val: "kicking"
        string_val: "kid"
        string_val: "kidnappers"
        string_val: "kidney"
        string_val: "kids"
        string_val: "kill"
        string_val: "killed"
        string_val: "killer"
        string_val: "killing"
        string_val: "kilmarnock"
        string_val: "kind"
        string_val: "kinder"
        string_val: "kinds"
        string_val: "king"
        string_val: "kingdom"
        string_val: "kingfisher"
        string_val: "kings"
        string_val: "kirkwood"
        string_val: "kitchen"
        string_val: "knackered"
        string_val: "knee"
        string_val: "knees"
        string_val: "knew"
        string_val: "knife"
        string_val: "knocked"
        string_val: "knockout"
        string_val: "know"
        string_val: "knowing"
        string_val: "knowledge"
        string_val: "known"
        string_val: "knows"
        string_val: "kosovo"
        string_val: "kremlin"
        string_val: "label"
        string_val: "labelling"
        string_val: "labour"
        string_val: "labourers"
        string_val: "labours"
        string_val: "lack"
        string_val: "laden"
        string_val: "lads"
        string_val: "lady"
        string_val: "laid"
        string_val: "lambert"
        string_val: "lancashire"
        string_val: "land"
        string_val: "landlord"
        string_val: "landowner"
        string_val: "landscape"
        string_val: "language"
        string_val: "lara"
        string_val: "large"
        string_val: "largely"
        string_val: "las"
        string_val: "last"
        string_val: "lasted"
        string_val: "late"
        string_val: "lately"
        string_val: "later"
        string_val: "latest"
        string_val: "latter"
        string_val: "laugh"
        string_val: "laughs"
        string_val: "launched"
        string_val: "laura"
        string_val: "law"
        string_val: "lawyer"
        string_val: "lawyers"
        string_val: "lay"
        string_val: "lead"
        string_val: "leader"
        string_val: "leaders"
        string_val: "leadership"
        string_val: "leading"
        string_val: "league"
        string_val: "learn"
        string_val: "learned"
        string_val: "learning"
        string_val: "leary"
        string_val: "least"
        string_val: "leave"
        string_val: "leaves"
        string_val: "leaving"
        string_val: "led"
        string_val: "lee"
        string_val: "left"
        string_val: "lefthanded"
        string_val: "leftwinger"
        string_val: "leg"
        string_val: "legacy"
        string_val: "legal"
        string_val: "legally"
        string_val: "legend"
        string_val: "legislation"
        string_val: "leicester"
        string_val: "leighton"
        string_val: "leisure"
        string_val: "length"
        string_val: "lengthy"
        string_val: "lennon"
        string_val: "lennox"
        string_val: "lesbian"
        string_val: "less"
        string_val: "lessen"
        string_val: "lesson"
        string_val: "lessons"
        string_val: "let"
        string_val: "lets"
        string_val: "letter"
        string_val: "letters"
        string_val: "letting"
        string_val: "letup"
        string_val: "level"
        string_val: "levels"
        string_val: "levy"
        string_val: "lewis"
        string_val: "liaison"
        string_val: "liar"
        string_val: "liberal"
        string_val: "liberty"
        string_val: "library"
        string_val: "libya"
        string_val: "licence"
        string_val: "licences"
        string_val: "licensing"
        string_val: "lie"
        string_val: "lies"
        string_val: "life"
        string_val: "lifeboat"
        string_val: "lifeline"
        string_val: "lifestyle"
        string_val: "lift"
        string_val: "lifted"
        string_val: "ligaments"
        string_val: "light"
        string_val: "lightning"
        string_val: "like"
        string_val: "liked"
        string_val: "likelihood"
        string_val: "likely"
        string_val: "limelight"
        string_val: "limited"
        string_val: "limits"
        string_val: "line"
        string_val: "lines"
        string_val: "lineup"
        string_val: "link"
        string_val: "linked"
        string_val: "links"
        string_val: "lions"
        string_val: "list"
        string_val: "listed"
        string_val: "listen"
        string_val: "listened"
        string_val: "listener"
        string_val: "listeners"
        string_val: "listening"
        string_val: "listens"
        string_val: "lists"
        string_val: "little"
        string_val: "live"
        string_val: "lived"
        string_val: "livelihood"
        string_val: "liverpool"
        string_val: "lives"
        string_val: "living"
        string_val: "livingston"
        string_val: "livingstone"
        string_val: "load"
        string_val: "loan"
        string_val: "lobby"
        string_val: "local"
        string_val: "locally"
        string_val: "located"
        string_val: "location"
        string_val: "locations"
        string_val: "lockerbie"
        string_val: "logan"
        string_val: "logic"
        string_val: "logical"
        string_val: "london"
        string_val: "long"
        string_val: "longer"
        string_val: "longterm"
        string_val: "look"
        string_val: "looked"
        string_val: "looking"
        string_val: "looks"
        string_val: "loop"
        string_val: "loose"
        string_val: "lord"
        string_val: "lords"
        string_val: "lose"
        string_val: "loser"
        string_val: "losers"
        string_val: "loses"
        string_val: "losing"
        string_val: "loss"
        string_val: "losses"
        string_val: "lost"
        string_val: "lot"
        string_val: "lothian"
        string_val: "lots"
        string_val: "lottery"
        string_val: "love"
        string_val: "loved"
        string_val: "lovely"
        string_val: "loves"
        string_val: "loving"
        string_val: "low"
        string_val: "lower"
        string_val: "lowest"
        string_val: "loyal"
        string_val: "loyalist"
        string_val: "loyalty"
        string_val: "luck"
        string_val: "luckily"
        string_val: "lucky"
        string_val: "lukewarm"
        string_val: "lunchtime"
        string_val: "luxury"
        string_val: "lyceum"
        string_val: "lying"
        string_val: "lyrical"
        string_val: "macdonald"
        string_val: "machine"
        string_val: "mackay"
        string_val: "mackie"
        string_val: "mad"
        string_val: "made"
        string_val: "madness"
        string_val: "magazine"
        string_val: "magic"
        string_val: "magical"
        string_val: "magician"
        string_val: "magpies"
        string_val: "main"
        string_val: "mainly"
        string_val: "mainstream"
        string_val: "maintain"
        string_val: "maintained"
        string_val: "major"
        string_val: "majors"
        string_val: "make"
        string_val: "maker"
        string_val: "makes"
        string_val: "making"
        string_val: "malcolm"
        string_val: "male"
        string_val: "maloney"
        string_val: "man"
        string_val: "manage"
        string_val: "managed"
        string_val: "management"
        string_val: "manager"
        string_val: "managers"
        string_val: "managing"
        string_val: "manchester"
        string_val: "mandate"
        string_val: "mandela"
        string_val: "manner"
        string_val: "many"
        string_val: "marathon"
        string_val: "march"
        string_val: "marconi"
        string_val: "margaret"
        string_val: "margin"
        string_val: "margins"
        string_val: "mark"
        string_val: "marker"
        string_val: "market"
        string_val: "marketed"
        string_val: "marketing"
        string_val: "markets"
        string_val: "marriage"
        string_val: "marriages"
        string_val: "married"
        string_val: "marshall"
        string_val: "martin"
        string_val: "marvellous"
        string_val: "mary"
        string_val: "mason"
        string_val: "mass"
        string_val: "massacre"
        string_val: "massive"
        string_val: "master"
        string_val: "masterful"
        string_val: "masters"
        string_val: "match"
        string_val: "matches"
        string_val: "material"
        string_val: "maternal"
        string_val: "matter"
        string_val: "mattered"
        string_val: "matters"
        string_val: "maximum"
        string_val: "may"
        string_val: "maybe"
        string_val: "mayhem"
        string_val: "mcarthur"
        string_val: "mccall"
        string_val: "mccarthy"
        string_val: "mccartney"
        string_val: "mcconnell"
        string_val: "mccormick"
        string_val: "mcculloch"
        string_val: "mcgraw"
        string_val: "mcgregor"
        string_val: "mckay"
        string_val: "mckean"
        string_val: "mckenna"
        string_val: "mckenzie"
        string_val: "mclean"
        string_val: "mclellan"
        string_val: "mcleod"
        string_val: "mcmaster"
        string_val: "mcnaughton"
        string_val: "mcneill"
        string_val: "mcpherson"
        string_val: "me"
        string_val: "mean"
        string_val: "meaningful"
        string_val: "means"
        string_val: "meant"
        string_val: "meantime"
        string_val: "meanwhile"
        string_val: "measure"
        string_val: "measures"
        string_val: "measuring"
        string_val: "meat"
        string_val: "medal"
        string_val: "medals"
        string_val: "media"
        string_val: "medical"
        string_val: "medication"
        string_val: "medicine"
        string_val: "medicines"
        string_val: "medium"
        string_val: "meet"
        string_val: "meeting"
        string_val: "meetings"
        string_val: "member"
        string_val: "members"
        string_val: "membership"
        string_val: "memorial"
        string_val: "memories"
        string_val: "memory"
        string_val: "men"
        string_val: "mental"
        string_val: "mentally"
        string_val: "mention"
        string_val: "mentioned"
        string_val: "mentor"
        string_val: "menu"
        string_val: "merely"
        string_val: "merger"
        string_val: "merit"
        string_val: "mess"
        string_val: "message"
        string_val: "messages"
        string_val: "met"
        string_val: "metaphor"
        string_val: "methadone"
        string_val: "method"
        string_val: "mexico"
        string_val: "miami"
        string_val: "michael"
        string_val: "michaels"
        string_val: "michelle"
        string_val: "mickelson"
        string_val: "middle"
        string_val: "midfield"
        string_val: "midland"
        string_val: "midlands"
        string_val: "midnight"
        string_val: "midweek"
        string_val: "might"
        string_val: "mightily"
        string_val: "mike"
        string_val: "milburn"
        string_val: "mile"
        string_val: "miles"
        string_val: "milestone"
        string_val: "military"
        string_val: "milk"
        string_val: "millennium"
        string_val: "miller"
        string_val: "million"
        string_val: "millionaire"
        string_val: "millions"
        string_val: "mind"
        string_val: "minds"
        string_val: "mine"
        string_val: "mini"
        string_val: "minibus"
        string_val: "minimal"
        string_val: "minimum"
        string_val: "mining"
        string_val: "minister"
        string_val: "ministers"
        string_val: "ministry"
        string_val: "minnows"
        string_val: "minor"
        string_val: "minute"
        string_val: "minutes"
        string_val: "miracle"
        string_val: "miracles"
        string_val: "mirror"
        string_val: "misconduct"
        string_val: "miserable"
        string_val: "misguided"
        string_val: "misleading"
        string_val: "misplaced"
        string_val: "miss"
        string_val: "missed"
        string_val: "missing"
        string_val: "mission"
        string_val: "mistake"
        string_val: "mistakes"
        string_val: "mitchell"
        string_val: "mix"
        string_val: "mixed"
        string_val: "mixing"
        string_val: "mixture"
        string_val: "mo"
        string_val: "mobile"
        string_val: "mod"
        string_val: "model"
        string_val: "modern"
        string_val: "modernisation"
        string_val: "modest"
        string_val: "modified"
        string_val: "moment"
        string_val: "momentous"
        string_val: "moments"
        string_val: "monaco"
        string_val: "monday"
        string_val: "monetary"
        string_val: "money"
        string_val: "monitor"
        string_val: "monitored"
        string_val: "monster"
        string_val: "monte"
        string_val: "month"
        string_val: "months"
        string_val: "monty"
        string_val: "monument"
        string_val: "mood"
        string_val: "moon"
        string_val: "mooted"
        string_val: "moral"
        string_val: "morale"
        string_val: "moray"
        string_val: "more"
        string_val: "moreover"
        string_val: "morning"
        string_val: "mortgage"
        string_val: "moscow"
        string_val: "most"
        string_val: "mostly"
        string_val: "mother"
        string_val: "mothers"
        string_val: "motherwell"
        string_val: "motion"
        string_val: "motions"
        string_val: "motive"
        string_val: "motorists"
        string_val: "mountain"
        string_val: "mounted"
        string_val: "moustache"
        string_val: "mouth"
        string_val: "move"
        string_val: "moved"
        string_val: "movement"
        string_val: "movie"
        string_val: "movies"
        string_val: "moving"
        string_val: "mp"
        string_val: "mr"
        string_val: "mrs"
        string_val: "ms"
        string_val: "much"
        string_val: "muddle"
        string_val: "multiple"
        string_val: "multiply"
        string_val: "multitude"
        string_val: "mum"
        string_val: "murder"
        string_val: "murdered"
        string_val: "murray"
        string_val: "murrays"
        string_val: "muscular"
        string_val: "museum"
        string_val: "music"
        string_val: "musical"
        string_val: "musicals"
        string_val: "musician"
        string_val: "musicians"
        string_val: "muslim"
        string_val: "must"
        string_val: "my"
        string_val: "myself"
        string_val: "mystery"
        string_val: "name"
        string_val: "named"
        string_val: "names"
        string_val: "nancy"
        string_val: "narrative"
        string_val: "narrow"
        string_val: "narrowing"
        string_val: "nation"
        string_val: "national"
        string_val: "nations"
        string_val: "nationwide"
        string_val: "nato"
        string_val: "natural"
        string_val: "naturally"
        string_val: "nature"
        string_val: "near"
        string_val: "nearly"
        string_val: "necessary"
        string_val: "need"
        string_val: "needed"
        string_val: "needs"
        string_val: "negative"
        string_val: "neglected"
        string_val: "negligent"
        string_val: "neighbour"
        string_val: "neighbourhood"
        string_val: "neighbouring"
        string_val: "neighbours"
        string_val: "neil"
        string_val: "neill"
        string_val: "neither"
        string_val: "nelson"
        string_val: "nerveracking"
        string_val: "nervous"
        string_val: "net"
        string_val: "netherlands"
        string_val: "network"
        string_val: "never"
        string_val: "new"
        string_val: "newcastle"
        string_val: "newcomer"
        string_val: "news"
        string_val: "newspaper"
        string_val: "newspapers"
        string_val: "next"
        string_val: "nice"
        string_val: "nicholson"
        string_val: "nicolson"
        string_val: "nicotine"
        string_val: "night"
        string_val: "nightmare"
        string_val: "nights"
        string_val: "nine"
        string_val: "no"
        string_val: "nobody"
        string_val: "noel"
        string_val: "nogo"
        string_val: "none"
        string_val: "nonetheless"
        string_val: "nonsense"
        string_val: "noone"
        string_val: "nor"
        string_val: "norm"
        string_val: "normal"
        string_val: "normally"
        string_val: "norman"
        string_val: "norsemen"
        string_val: "north"
        string_val: "northeast"
        string_val: "northern"
        string_val: "norway"
        string_val: "not"
        string_val: "notable"
        string_val: "note"
        string_val: "noted"
        string_val: "nothing"
        string_val: "notice"
        string_val: "noticed"
        string_val: "novel"
        string_val: "november"
        string_val: "now"
        string_val: "nowadays"
        string_val: "nowhere"
        string_val: "nuclear"
        string_val: "number"
        string_val: "numbers"
        string_val: "numerous"
        string_val: "nurses"
        string_val: "nursing"
        string_val: "o"
        string_val: "oath"
        string_val: "objective"
        string_val: "observed"
        string_val: "observer"
        string_val: "obsessed"
        string_val: "obsession"
        string_val: "obstruction"
        string_val: "obvious"
        string_val: "obviously"
        string_val: "occasion"
        string_val: "occasions"
        string_val: "occupied"
        string_val: "occur"
        string_val: "occurred"
        string_val: "october"
        string_val: "odd"
        string_val: "odds"
        string_val: "of"
        string_val: "off"
        string_val: "offday"
        string_val: "offduty"
        string_val: "offence"
        string_val: "offences"
        string_val: "offended"
        string_val: "offender"
        string_val: "offenders"
        string_val: "offer"
        string_val: "offered"
        string_val: "offerings"
        string_val: "offers"
        string_val: "office"
        string_val: "officer"
        string_val: "officers"
        string_val: "offices"
        string_val: "official"
        string_val: "officials"
        string_val: "offside"
        string_val: "ofr"
        string_val: "often"
        string_val: "oil"
        string_val: "okay"
        string_val: "old"
        string_val: "older"
        string_val: "olympic"
        string_val: "olympics"
        string_val: "omen"
        string_val: "omission"
        string_val: "on"
        string_val: "once"
        string_val: "one"
        string_val: "ones"
        string_val: "onesided"
        string_val: "onethird"
        string_val: "oneyear"
        string_val: "ongoing"
        string_val: "online"
        string_val: "only"
        string_val: "open"
        string_val: "opened"
        string_val: "opener"
        string_val: "opening"
        string_val: "openly"
        string_val: "openness"
        string_val: "opens"
        string_val: "opera"
        string_val: "operate"
        string_val: "operation"
        string_val: "opinion"
        string_val: "opinions"
        string_val: "opponent"
        string_val: "opponents"
        string_val: "opportunism"
        string_val: "opportunities"
        string_val: "opportunity"
        string_val: "oppose"
        string_val: "opposed"
        string_val: "opposite"
        string_val: "oppressive"
        string_val: "option"
        string_val: "optional"
        string_val: "options"
        string_val: "or"
        string_val: "orange"
        string_val: "orchestra"
        string_val: "ordeal"
        string_val: "order"
        string_val: "ordering"
        string_val: "orders"
        string_val: "organised"
        string_val: "organisers"
        string_val: "orlando"
        string_val: "osama"
        string_val: "other"
        string_val: "others"
        string_val: "otherwise"
        string_val: "our"
        string_val: "ourselves"
        string_val: "out"
        string_val: "outbreak"
        string_val: "outcome"
        string_val: "outcomes"
        string_val: "outdated"
        string_val: "outdoors"
        string_val: "outfit"
        string_val: "outgoing"
        string_val: "outing"
        string_val: "outlay"
        string_val: "outlet"
        string_val: "outlook"
        string_val: "outperformed"
        string_val: "outplayed"
        string_val: "output"
        string_val: "outrage"
        string_val: "outraged"
        string_val: "outrageous"
        string_val: "outset"
        string_val: "outside"
        string_val: "outskirts"
        string_val: "outsourcing"
        string_val: "outstanding"
        string_val: "over"
        string_val: "overall"
        string_val: "overdraft"
        string_val: "overdue"
        string_val: "overload"
        string_val: "overlooked"
        string_val: "overly"
        string_val: "overnight"
        string_val: "overseas"
        string_val: "oversee"
        string_val: "overstretched"
        string_val: "overtime"
        string_val: "overwhelmed"
        string_val: "owe"
        string_val: "owen"
        string_val: "own"
        string_val: "owned"
        string_val: "owner"
        string_val: "owners"
        string_val: "ownership"
        string_val: "owns"
        string_val: "pace"
        string_val: "pack"
        string_val: "package"
        string_val: "packed"
        string_val: "paedophile"
        string_val: "paedophiles"
        string_val: "page"
        string_val: "pages"
        string_val: "paid"
        string_val: "pain"
        string_val: "painful"
        string_val: "painting"
        string_val: "paintings"
        string_val: "pair"
        string_val: "pakistan"
        string_val: "palace"
        string_val: "pals"
        string_val: "panel"
        string_val: "panels"
        string_val: "panic"
        string_val: "panicked"
        string_val: "paper"
        string_val: "papers"
        string_val: "par"
        string_val: "parade"
        string_val: "paradise"
        string_val: "parallel"
        string_val: "paramount"
        string_val: "paranoia"
        string_val: "parcel"
        string_val: "parental"
        string_val: "parenthood"
        string_val: "parents"
        string_val: "paris"
        string_val: "park"
        string_val: "parker"
        string_val: "parliament"
        string_val: "parliaments"
        string_val: "parole"
        string_val: "part"
        string_val: "partial"
        string_val: "particularly"
        string_val: "parties"
        string_val: "partition"
        string_val: "partly"
        string_val: "partner"
        string_val: "partners"
        string_val: "partnership"
        string_val: "parts"
        string_val: "parttime"
        string_val: "party"
        string_val: "partys"
        string_val: "passed"
        string_val: "passenger"
        string_val: "passengers"
        string_val: "passersby"
        string_val: "passes"
        string_val: "passing"
        string_val: "passion"
        string_val: "passionate"
        string_val: "passport"
        string_val: "past"
        string_val: "patent"
        string_val: "patently"
        string_val: "paterson"
        string_val: "path"
        string_val: "pathetic"
        string_val: "paths"
        string_val: "patience"
        string_val: "patient"
        string_val: "patients"
        string_val: "pattern"
        string_val: "patton"
        string_val: "paul"
        string_val: "pause"
        string_val: "pay"
        string_val: "paying"
        string_val: "payments"
        string_val: "peace"
        string_val: "peaceful"
        string_val: "peas"
        string_val: "pedestrians"
        string_val: "peers"
        string_val: "penalised"
        string_val: "penalties"
        string_val: "penalty"
        string_val: "penny"
        string_val: "pension"
        string_val: "pensioners"
        string_val: "pensions"
        string_val: "people"
        string_val: "percentage"
        string_val: "perception"
        string_val: "perfect"
        string_val: "perfection"
        string_val: "perfectly"
        string_val: "perform"
        string_val: "performance"
        string_val: "performers"
        string_val: "performing"
        string_val: "perhaps"
        string_val: "period"
        string_val: "perjury"
        string_val: "permanent"
        string_val: "permission"
        string_val: "permitting"
        string_val: "perplexed"
        string_val: "person"
        string_val: "personal"
        string_val: "personnel"
        string_val: "perspective"
        string_val: "persuaded"
        string_val: "persuasion"
        string_val: "persuasive"
        string_val: "peter"
        string_val: "petition"
        string_val: "petrol"
        string_val: "phase"
        string_val: "phenomenon"
        string_val: "phil"
        string_val: "phone"
        string_val: "phoned"
        string_val: "phones"
        string_val: "photo"
        string_val: "photograph"
        string_val: "physical"
        string_val: "physically"
        string_val: "physicists"
        string_val: "picked"
        string_val: "picture"
        string_val: "piece"
        string_val: "pieces"
        string_val: "pig"
        string_val: "pilot"
        string_val: "pint"
        string_val: "pitch"
        string_val: "pitt"
        string_val: "pity"
        string_val: "pivotal"
        string_val: "place"
        string_val: "placed"
        string_val: "places"
        string_val: "placing"
        string_val: "plain"
        string_val: "plainly"
        string_val: "plan"
        string_val: "plane"
        string_val: "planned"
        string_val: "planners"
        string_val: "planning"
        string_val: "plans"
        string_val: "plant"
        string_val: "planting"
        string_val: "plants"
        string_val: "plastic"
        string_val: "platform"
        string_val: "play"
        string_val: "played"
        string_val: "player"
        string_val: "players"
        string_val: "playing"
        string_val: "plays"
        string_val: "pleaded"
        string_val: "please"
        string_val: "pleased"
        string_val: "pleasure"
        string_val: "pledged"
        string_val: "pledges"
        string_val: "plenty"
        string_val: "plot"
        string_val: "plunge"
        string_val: "pockets"
        string_val: "podium"
        string_val: "poet"
        string_val: "poetic"
        string_val: "point"
        string_val: "pointed"
        string_val: "pointless"
        string_val: "points"
        string_val: "police"
        string_val: "policeman"
        string_val: "policemen"
        string_val: "policies"
        string_val: "policing"
        string_val: "policy"
        string_val: "polished"
        string_val: "political"
        string_val: "politics"
        string_val: "poll"
        string_val: "polls"
        string_val: "pollution"
        string_val: "pool"
        string_val: "pooled"
        string_val: "poor"
        string_val: "poorly"
        string_val: "pop"
        string_val: "popular"
        string_val: "population"
        string_val: "portrait"
        string_val: "portugal"
        string_val: "position"
        string_val: "positive"
        string_val: "positives"
        string_val: "possessed"
        string_val: "possessing"
        string_val: "possession"
        string_val: "possible"
        string_val: "possibly"
        string_val: "post"
        string_val: "poster"
        string_val: "postponed"
        string_val: "pot"
        string_val: "potential"
        string_val: "potions"
        string_val: "potter"
        string_val: "pound"
        string_val: "pounds"
        string_val: "poverty"
        string_val: "power"
        string_val: "powerful"
        string_val: "powers"
        string_val: "pr"
        string_val: "practical"
        string_val: "practice"
        string_val: "practise"
        string_val: "praised"
        string_val: "pray"
        string_val: "prayers"
        string_val: "precaution"
        string_val: "precedent"
        string_val: "preceding"
        string_val: "precious"
        string_val: "precisely"
        string_val: "precision"
        string_val: "predator"
        string_val: "predict"
        string_val: "predicted"
        string_val: "predicting"
        string_val: "prediction"
        string_val: "preemptive"
        string_val: "prefer"
        string_val: "preference"
        string_val: "preferred"
        string_val: "prefers"
        string_val: "pregnancy"
        string_val: "pregnant"
        string_val: "prejudice"
        string_val: "premature"
        string_val: "premier"
        string_val: "premiership"
        string_val: "premises"
        string_val: "premium"
        string_val: "prepared"
        string_val: "preparing"
        string_val: "prescott"
        string_val: "prescription"
        string_val: "presence"
        string_val: "present"
        string_val: "presented"
        string_val: "president"
        string_val: "press"
        string_val: "pressing"
        string_val: "pressure"
        string_val: "pressured"
        string_val: "pressures"
        string_val: "pretend"
        string_val: "pretended"
        string_val: "pretty"
        string_val: "prevail"
        string_val: "prevails"
        string_val: "prevented"
        string_val: "prevention"
        string_val: "previous"
        string_val: "previously"
        string_val: "price"
        string_val: "prices"
        string_val: "pride"
        string_val: "primal"
        string_val: "primary"
        string_val: "prime"
        string_val: "prince"
        string_val: "princess"
        string_val: "principal"
        string_val: "principle"
        string_val: "printed"
        string_val: "prism"
        string_val: "prison"
        string_val: "prisoner"
        string_val: "prisoners"
        string_val: "privacy"
        string_val: "private"
        string_val: "privilege"
        string_val: "privileged"
        string_val: "prize"
        string_val: "probably"
        string_val: "probation"
        string_val: "problem"
        string_val: "problems"
        string_val: "procedure"
        string_val: "procedures"
        string_val: "proceed"
        string_val: "proceedings"
        string_val: "process"
        string_val: "processing"
        string_val: "proclaiming"
        string_val: "procurement"
        string_val: "produce"
        string_val: "producer"
        string_val: "producers"
        string_val: "producing"
        string_val: "product"
        string_val: "production"
        string_val: "productive"
        string_val: "products"
        string_val: "profession"
        string_val: "professor"
        string_val: "profile"
        string_val: "profit"
        string_val: "profits"
        string_val: "profound"
        string_val: "profoundly"
        string_val: "prognosis"
        string_val: "programme"
        string_val: "programmes"
        string_val: "progress"
        string_val: "progressed"
        string_val: "progressing"
        string_val: "progression"
        string_val: "project"
        string_val: "projections"
        string_val: "projects"
        string_val: "promise"
        string_val: "promised"
        string_val: "promises"
        string_val: "promising"
        string_val: "promote"
        string_val: "promoters"
        string_val: "promotions"
        string_val: "prompted"
        string_val: "pronounced"
        string_val: "proof"
        string_val: "proper"
        string_val: "properly"
        string_val: "properties"
        string_val: "property"
        string_val: "proportion"
        string_val: "proposal"
        string_val: "proposals"
        string_val: "proposed"
        string_val: "proposing"
        string_val: "prosecute"
        string_val: "prosecution"
        string_val: "prospect"
        string_val: "prospects"
        string_val: "protect"
        string_val: "protecting"
        string_val: "protection"
        string_val: "protective"
        string_val: "protest"
        string_val: "protested"
        string_val: "protests"
        string_val: "protracted"
        string_val: "proud"
        string_val: "prove"
        string_val: "proved"
        string_val: "proven"
        string_val: "provide"
        string_val: "provided"
        string_val: "provident"
        string_val: "provider"
        string_val: "provides"
        string_val: "providing"
        string_val: "provision"
        string_val: "provisions"
        string_val: "provoke"
        string_val: "provoked"
        string_val: "pub"
        string_val: "public"
        string_val: "publish"
        string_val: "published"
        string_val: "publishing"
        string_val: "pull"
        string_val: "pulled"
        string_val: "punish"
        string_val: "punished"
        string_val: "punishment"
        string_val: "punters"
        string_val: "pupils"
        string_val: "purchase"
        string_val: "purely"
        string_val: "purists"
        string_val: "purpose"
        string_val: "purposes"
        string_val: "pursued"
        string_val: "pursuing"
        string_val: "pursuit"
        string_val: "push"
        string_val: "pushed"
        string_val: "pushing"
        string_val: "put"
        string_val: "puts"
        string_val: "putting"
        string_val: "puzzled"
        string_val: "puzzling"
        string_val: "qualified"
        string_val: "qualifier"
        string_val: "quality"
        string_val: "qualms"
        string_val: "quarter"
        string_val: "quarters"
        string_val: "queen"
        string_val: "queens"
        string_val: "question"
        string_val: "questioning"
        string_val: "questions"
        string_val: "queue"
        string_val: "quick"
        string_val: "quickly"
        string_val: "quiet"
        string_val: "quietly"
        string_val: "quit"
        string_val: "quite"
        string_val: "race"
        string_val: "races"
        string_val: "racial"
        string_val: "racism"
        string_val: "racist"
        string_val: "radical"
        string_val: "radio"
        string_val: "rafferty"
        string_val: "railways"
        string_val: "rain"
        string_val: "rainbow"
        string_val: "rainbows"
        string_val: "raindrops"
        string_val: "rainy"
        string_val: "raise"
        string_val: "raised"
        string_val: "raises"
        string_val: "rally"
        string_val: "ran"
        string_val: "random"
        string_val: "range"
        string_val: "rangers"
        string_val: "ranks"
        string_val: "ransom"
        string_val: "raped"
        string_val: "rapid"
        string_val: "rapidly"
        string_val: "rarely"
        string_val: "rarity"
        string_val: "rate"
        string_val: "rated"
        string_val: "rates"
        string_val: "rather"
        string_val: "ratify"
        string_val: "rationing"
        string_val: "raucous"
        string_val: "raymond"
        string_val: "rays"
        string_val: "reach"
        string_val: "reached"
        string_val: "reaches"
        string_val: "reaching"
        string_val: "react"
        string_val: "reacted"
        string_val: "reaction"
        string_val: "read"
        string_val: "reader"
        string_val: "ready"
        string_val: "real"
        string_val: "realise"
        string_val: "realised"
        string_val: "realises"
        string_val: "realising"
        string_val: "realism"
        string_val: "realistic"
        string_val: "reallife"
        string_val: "really"
        string_val: "rear"
        string_val: "reason"
        string_val: "reasons"
        string_val: "reassure"
        string_val: "rebound"
        string_val: "rebuild"
        string_val: "rebuilding"
        string_val: "recall"
        string_val: "receive"
        string_val: "received"
        string_val: "receivers"
        string_val: "receiving"
        string_val: "recent"
        string_val: "recently"
        string_val: "reception"
        string_val: "receptive"
        string_val: "recipe"
        string_val: "reckless"
        string_val: "reckons"
        string_val: "recognise"
        string_val: "recognised"
        string_val: "recommend"
        string_val: "recommended"
        string_val: "record"
        string_val: "recorded"
        string_val: "recording"
        string_val: "records"
        string_val: "recover"
        string_val: "recovered"
        string_val: "recruiting"
        string_val: "recruitment"
        string_val: "rectify"
        string_val: "recycled"
        string_val: "red"
        string_val: "redemption"
        string_val: "redress"
        string_val: "reds"
        string_val: "reduce"
        string_val: "reduced"
        string_val: "reduction"
        string_val: "redundant"
        string_val: "redwood"
        string_val: "referee"
        string_val: "referees"
        string_val: "refined"
        string_val: "reflect"
        string_val: "reflected"
        string_val: "reflection"
        string_val: "reflects"
        string_val: "reform"
        string_val: "refraction"
        string_val: "refugees"
        string_val: "refund"
        string_val: "refurbishment"
        string_val: "refuse"
        string_val: "refused"
        string_val: "refuses"
        string_val: "regaining"
        string_val: "regard"
        string_val: "regarding"
        string_val: "regime"
        string_val: "regiment"
        string_val: "region"
        string_val: "regional"
        string_val: "regions"
        string_val: "register"
        string_val: "registered"
        string_val: "regret"
        string_val: "regretted"
        string_val: "regular"
        string_val: "regulation"
        string_val: "rehearsal"
        string_val: "rehearsals"
        string_val: "reid"
        string_val: "reinforce"
        string_val: "reinforced"
        string_val: "reinvent"
        string_val: "reject"
        string_val: "rejected"
        string_val: "rejects"
        string_val: "relate"
        string_val: "related"
        string_val: "relation"
        string_val: "relations"
        string_val: "relationship"
        string_val: "relative"
        string_val: "relatives"
        string_val: "relax"
        string_val: "relay"
        string_val: "release"
        string_val: "released"
        string_val: "relentless"
        string_val: "relevant"
        string_val: "relied"
        string_val: "relief"
        string_val: "relieved"
        string_val: "religion"
        string_val: "religions"
        string_val: "religious"
        string_val: "relish"
        string_val: "relishing"
        string_val: "relocate"
        string_val: "rely"
        string_val: "remain"
        string_val: "remained"
        string_val: "remaining"
        string_val: "remains"
        string_val: "remarks"
        string_val: "rematch"
        string_val: "remember"
        string_val: "reminded"
        string_val: "reminder"
        string_val: "remit"
        string_val: "remorse"
        string_val: "remote"
        string_val: "removal"
        string_val: "removed"
        string_val: "renew"
        string_val: "renewal"
        string_val: "renewed"
        string_val: "reopen"
        string_val: "reopened"
        string_val: "repair"
        string_val: "repayment"
        string_val: "repeal"
        string_val: "repeat"
        string_val: "repeated"
        string_val: "replace"
        string_val: "replaced"
        string_val: "replacement"
        string_val: "replacements"
        string_val: "replicate"
        string_val: "replied"
        string_val: "reply"
        string_val: "replying"
        string_val: "report"
        string_val: "reported"
        string_val: "reporter"
        string_val: "reports"
        string_val: "reprehensible"
        string_val: "represent"
        string_val: "represents"
        string_val: "republic"
        string_val: "reputed"
        string_val: "request"
        string_val: "requested"
        string_val: "require"
        string_val: "required"
        string_val: "requirement"
        string_val: "rescue"
        string_val: "research"
        string_val: "resentment"
        string_val: "reserved"
        string_val: "reshuffle"
        string_val: "residence"
        string_val: "resident"
        string_val: "resign"
        string_val: "resigned"
        string_val: "resilient"
        string_val: "resistance"
        string_val: "resisted"
        string_val: "resolution"
        string_val: "resolutions"
        string_val: "resolve"
        string_val: "resolved"
        string_val: "resolving"
        string_val: "resort"
        string_val: "resource"
        string_val: "resourceful"
        string_val: "resources"
        string_val: "respect"
        string_val: "respected"
        string_val: "respects"
        string_val: "respite"
        string_val: "respond"
        string_val: "responded"
        string_val: "responding"
        string_val: "response"
        string_val: "responsibility"
        string_val: "responsible"
        string_val: "rest"
        string_val: "restart"
        string_val: "restaurant"
        string_val: "restraint"
        string_val: "restrictions"
        string_val: "restrictive"
        string_val: "restructure"
        string_val: "restructuring"
        string_val: "result"
        string_val: "results"
        string_val: "resume"
        string_val: "resurrect"
        string_val: "retail"
        string_val: "retailer"
        string_val: "retain"
        string_val: "retained"
        string_val: "retains"
        string_val: "rethink"
        string_val: "reticence"
        string_val: "retire"
        string_val: "retired"
        string_val: "retirement"
        string_val: "retiring"
        string_val: "retraining"
        string_val: "retreat"
        string_val: "return"
        string_val: "returned"
        string_val: "returning"
        string_val: "reunion"
        string_val: "reveal"
        string_val: "revealed"
        string_val: "revealing"
        string_val: "revellers"
        string_val: "revelling"
        string_val: "revenge"
        string_val: "revenue"
        string_val: "reverence"
        string_val: "reverse"
        string_val: "reversed"
        string_val: "reversing"
        string_val: "review"
        string_val: "reviewed"
        string_val: "reviews"
        string_val: "revising"
        string_val: "revision"
        string_val: "revival"
        string_val: "revive"
        string_val: "revived"
        string_val: "reviving"
        string_val: "reward"
        string_val: "rewarded"
        string_val: "rewarding"
        string_val: "rewards"
        string_val: "rhythm"
        string_val: "rich"
        string_val: "richard"
        string_val: "ride"
        string_val: "rider"
        string_val: "ridiculed"
        string_val: "right"
        string_val: "rightly"
        string_val: "rights"
        string_val: "rigid"
        string_val: "rigorous"
        string_val: "rise"
        string_val: "rising"
        string_val: "risk"
        string_val: "risks"
        string_val: "risky"
        string_val: "ritchie"
        string_val: "ritual"
        string_val: "rival"
        string_val: "rivals"
        string_val: "river"
        string_val: "riverside"
        string_val: "road"
        string_val: "roads"
        string_val: "robbery"
        string_val: "robbie"
        string_val: "robert"
        string_val: "robertson"
        string_val: "robin"
        string_val: "robinson"
        string_val: "robson"
        string_val: "robust"
        string_val: "rock"
        string_val: "role"
        string_val: "roll"
        string_val: "rolled"
        string_val: "roman"
        string_val: "romantic"
        string_val: "roof"
        string_val: "room"
        string_val: "rooms"
        string_val: "root"
        string_val: "roots"
        string_val: "ross"
        string_val: "rot"
        string_val: "rough"
        string_val: "round"
        string_val: "rounded"
        string_val: "route"
        string_val: "routine"
        string_val: "row"
        string_val: "rowley"
        string_val: "roy"
        string_val: "royal"
        string_val: "royalty"
        string_val: "rub"
        string_val: "rubbish"
        string_val: "rubble"
        string_val: "ruck"
        string_val: "rugby"
        string_val: "rule"
        string_val: "ruled"
        string_val: "rules"
        string_val: "ruling"
        string_val: "rumours"
        string_val: "run"
        string_val: "runner"
        string_val: "runnerup"
        string_val: "running"
        string_val: "runs"
        string_val: "rural"
        string_val: "rush"
        string_val: "rushed"
        string_val: "russell"
        string_val: "russia"
        string_val: "russian"
        string_val: "russians"
        string_val: "ryder"
        string_val: "s"
        string_val: "sac"
        string_val: "sacking"
        string_val: "sacrifice"
        string_val: "sad"
        string_val: "saddam"
        string_val: "saddened"
        string_val: "sadly"
        string_val: "sadness"
        string_val: "safe"
        string_val: "safety"
        string_val: "said"
        string_val: "sainsbury"
        string_val: "saints"
        string_val: "sake"
        string_val: "salaries"
        string_val: "salary"
        string_val: "sale"
        string_val: "sales"
        string_val: "salvation"
        string_val: "sam"
        string_val: "same"
        string_val: "samples"
        string_val: "sanctions"
        string_val: "sandy"
        string_val: "sarah"
        string_val: "sat"
        string_val: "satan"
        string_val: "satanic"
        string_val: "satire"
        string_val: "satisfactory"
        string_val: "satisfied"
        string_val: "saturday"
        string_val: "saturdays"
        string_val: "saudis"
        string_val: "save"
        string_val: "savings"
        string_val: "savour"
        string_val: "saw"
        string_val: "say"
        string_val: "saying"
        string_val: "says"
        string_val: "scale"
        string_val: "scandal"
        string_val: "scared"
        string_val: "scary"
        string_val: "scene"
        string_val: "scheduled"
        string_val: "scheme"
        string_val: "school"
        string_val: "schoolboy"
        string_val: "schoolboys"
        string_val: "schools"
        string_val: "schoolteacher"
        string_val: "schroeder"
        string_val: "science"
        string_val: "scientific"
        string_val: "scientists"
        string_val: "sclerosis"
        string_val: "scoop"
        string_val: "scope"
        string_val: "score"
        string_val: "scored"
        string_val: "scoring"
        string_val: "scot"
        string_val: "scotch"
        string_val: "scotland"
        string_val: "scots"
        string_val: "scotsman"
        string_val: "scott"
        string_val: "scottish"
        string_val: "scrapped"
        string_val: "scratch"
        string_val: "screen"
        string_val: "screenplay"
        string_val: "script"
        string_val: "scrutiny"
        string_val: "se"
        string_val: "sea"
        string_val: "seaman"
        string_val: "sean"
        string_val: "search"
        string_val: "season"
        string_val: "seasonal"
        string_val: "seat"
        string_val: "seats"
        string_val: "second"
        string_val: "secondly"
        string_val: "seconds"
        string_val: "secret"
        string_val: "secretary"
        string_val: "secrets"
        string_val: "sections"
        string_val: "sector"
        string_val: "secure"
        string_val: "secured"
        string_val: "securing"
        string_val: "security"
        string_val: "see"
        string_val: "seeing"
        string_val: "seek"
        string_val: "seekers"
        string_val: "seeking"
        string_val: "seem"
        string_val: "seemed"
        string_val: "seems"
        string_val: "seen"
        string_val: "sees"
        string_val: "seize"
        string_val: "seized"
        string_val: "seizures"
        string_val: "selected"
        string_val: "selecting"
        string_val: "selection"
        string_val: "selective"
        string_val: "self"
        string_val: "sell"
        string_val: "seller"
        string_val: "sellout"
        string_val: "senator"
        string_val: "sending"
        string_val: "sends"
        string_val: "senior"
        string_val: "sense"
        string_val: "sensible"
        string_val: "sensitive"
        string_val: "sent"
        string_val: "sentence"
        string_val: "sentenced"
        string_val: "sentences"
        string_val: "sentencing"
        string_val: "sentiment"
        string_val: "separate"
        string_val: "separates"
        string_val: "september"
        string_val: "serb"
        string_val: "serbia"
        string_val: "sergio"
        string_val: "serial"
        string_val: "series"
        string_val: "serious"
        string_val: "seriously"
        string_val: "seriousness"
        string_val: "servant"
        string_val: "serve"
        string_val: "served"
        string_val: "service"
        string_val: "services"
        string_val: "session"
        string_val: "sessions"
        string_val: "set"
        string_val: "sets"
        string_val: "setting"
        string_val: "settle"
        string_val: "settled"
        string_val: "settlement"
        string_val: "setup"
        string_val: "seven"
        string_val: "seventeenth"
        string_val: "seventies"
        string_val: "several"
        string_val: "severe"
        string_val: "severely"
        string_val: "sex"
        string_val: "sexually"
        string_val: "shadow"
        string_val: "shaking"
        string_val: "shall"
        string_val: "shambles"
        string_val: "shame"
        string_val: "shape"
        string_val: "share"
        string_val: "shared"
        string_val: "shareholders"
        string_val: "shares"
        string_val: "sharon"
        string_val: "sharp"
        string_val: "shattering"
        string_val: "she"
        string_val: "sheep"
        string_val: "sheet"
        string_val: "shells"
        string_val: "shelter"
        string_val: "sheriff"
        string_val: "shes"
        string_val: "shift"
        string_val: "shiny"
        string_val: "shirt"
        string_val: "shock"
        string_val: "shocked"
        string_val: "shocking"
        string_val: "shoot"
        string_val: "shooting"
        string_val: "shop"
        string_val: "shoppers"
        string_val: "shopping"
        string_val: "short"
        string_val: "shortage"
        string_val: "shortages"
        string_val: "shorten"
        string_val: "shortest"
        string_val: "shortfall"
        string_val: "shortlist"
        string_val: "shortlived"
        string_val: "shortly"
        string_val: "shortsighted"
        string_val: "shortterm"
        string_val: "shot"
        string_val: "shots"
        string_val: "should"
        string_val: "shouldnt"
        string_val: "shout"
        string_val: "shouting"
        string_val: "show"
        string_val: "showcase"
        string_val: "showdown"
        string_val: "showed"
        string_val: "showing"
        string_val: "shown"
        string_val: "shows"
        string_val: "shut"
        string_val: "shuttle"
        string_val: "shyness"
        string_val: "side"
        string_val: "sides"
        string_val: "sight"
        string_val: "sightings"
        string_val: "sights"
        string_val: "sign"
        string_val: "signal"
        string_val: "signals"
        string_val: "signature"
        string_val: "signed"
        string_val: "significant"
        string_val: "signing"
        string_val: "signings"
        string_val: "signs"
        string_val: "silence"
        string_val: "silver"
        string_val: "similar"
        string_val: "simmering"
        string_val: "simon"
        string_val: "simple"
        string_val: "simplified"
        string_val: "simply"
        string_val: "simpson"
        string_val: "since"
        string_val: "sincere"
        string_val: "sincerely"
        string_val: "sing"
        string_val: "singapore"
        string_val: "singer"
        string_val: "singers"
        string_val: "singing"
        string_val: "single"
        string_val: "singled"
        string_val: "singles"
        string_val: "sinister"
        string_val: "sinn"
        string_val: "sir"
        string_val: "sister"
        string_val: "sisters"
        string_val: "sit"
        string_val: "site"
        string_val: "sites"
        string_val: "sitting"
        string_val: "situation"
        string_val: "six"
        string_val: "sixth"
        string_val: "size"
        string_val: "sizeable"
        string_val: "sizes"
        string_val: "skies"
        string_val: "skill"
        string_val: "skilled"
        string_val: "skills"
        string_val: "skipper"
        string_val: "sky"
        string_val: "slabs"
        string_val: "slater"
        string_val: "slaughter"
        string_val: "sleep"
        string_val: "sleeper"
        string_val: "sleeve"
        string_val: "slightly"
        string_val: "slip"
        string_val: "slipped"
        string_val: "slippery"
        string_val: "slope"
        string_val: "sloppy"
        string_val: "slow"
        string_val: "slowly"
        string_val: "slump"
        string_val: "small"
        string_val: "smaller"
        string_val: "smashing"
        string_val: "smith"
        string_val: "smoke"
        string_val: "smoking"
        string_val: "smuggling"
        string_val: "snack"
        string_val: "snake"
        string_val: "snipers"
        string_val: "snow"
        string_val: "so"
        string_val: "soap"
        string_val: "sober"
        string_val: "sobering"
        string_val: "social"
        string_val: "socialise"
        string_val: "socialist"
        string_val: "socialists"
        string_val: "societies"
        string_val: "society"
        string_val: "soft"
        string_val: "sold"
        string_val: "soldier"
        string_val: "solely"
        string_val: "solid"
        string_val: "solo"
        string_val: "solution"
        string_val: "solutions"
        string_val: "solve"
        string_val: "some"
        string_val: "somebody"
        string_val: "somehow"
        string_val: "someone"
        string_val: "something"
        string_val: "sometime"
        string_val: "sometimes"
        string_val: "somewhat"
        string_val: "somewhere"
        string_val: "son"
        string_val: "song"
        string_val: "songbirds"
        string_val: "songs"
        string_val: "sons"
        string_val: "soon"
        string_val: "sooner"
        string_val: "soprano"
        string_val: "sorry"
        string_val: "sort"
        string_val: "sorted"
        string_val: "sorts"
        string_val: "sought"
        string_val: "soul"
        string_val: "sound"
        string_val: "sounded"
        string_val: "sounds"
        string_val: "source"
        string_val: "sources"
        string_val: "souter"
        string_val: "south"
        string_val: "southern"
        string_val: "sovereign"
        string_val: "space"
        string_val: "spain"
        string_val: "spare"
        string_val: "speak"
        string_val: "speaking"
        string_val: "special"
        string_val: "specialised"
        string_val: "specialist"
        string_val: "specialists"
        string_val: "species"
        string_val: "specific"
        string_val: "specified"
        string_val: "spectacle"
        string_val: "spectator"
        string_val: "spectrum"
        string_val: "speculate"
        string_val: "speech"
        string_val: "speed"
        string_val: "spencer"
        string_val: "spend"
        string_val: "spent"
        string_val: "spirit"
        string_val: "spirits"
        string_val: "spite"
        string_val: "split"
        string_val: "spoke"
        string_val: "spoken"
        string_val: "spokesman"
        string_val: "spokeswoman"
        string_val: "sponsors"
        string_val: "spoon"
        string_val: "spoons"
        string_val: "sport"
        string_val: "sporting"
        string_val: "sports"
        string_val: "spotlight"
        string_val: "spreading"
        string_val: "spring"
        string_val: "spy"
        string_val: "squad"
        string_val: "square"
        string_val: "stabbed"
        string_val: "stabilise"
        string_val: "stability"
        string_val: "stable"
        string_val: "stadium"
        string_val: "staff"
        string_val: "stage"
        string_val: "stagecoach"
        string_val: "stages"
        string_val: "stake"
        string_val: "stakes"
        string_val: "stalkers"
        string_val: "stan"
        string_val: "stance"
        string_val: "stand"
        string_val: "standard"
        string_val: "standards"
        string_val: "standby"
        string_val: "standing"
        string_val: "standpoint"
        string_val: "stands"
        string_val: "standstill"
        string_val: "standup"
        string_val: "star"
        string_val: "stars"
        string_val: "start"
        string_val: "started"
        string_val: "starter"
        string_val: "starters"
        string_val: "starting"
        string_val: "starts"
        string_val: "state"
        string_val: "statement"
        string_val: "states"
        string_val: "station"
        string_val: "statistic"
        string_val: "stature"
        string_val: "stay"
        string_val: "stayed"
        string_val: "staying"
        string_val: "stays"
        string_val: "stealing"
        string_val: "stealth"
        string_val: "stella"
        string_val: "step"
        string_val: "stephen"
        string_val: "steps"
        string_val: "steven"
        string_val: "stevenson"
        string_val: "stevie"
        string_val: "stewart"
        string_val: "stick"
        string_val: "stigma"
        string_val: "still"
        string_val: "stirling"
        string_val: "stock"
        string_val: "stocks"
        string_val: "stood"
        string_val: "stop"
        string_val: "stopgap"
        string_val: "stoppages"
        string_val: "stopped"
        string_val: "stopping"
        string_val: "storage"
        string_val: "store"
        string_val: "stores"
        string_val: "story"
        string_val: "straight"
        string_val: "straightforward"
        string_val: "strangely"
        string_val: "stranger"
        string_val: "strangers"
        string_val: "strategy"
        string_val: "strathclyde"
        string_val: "straw"
        string_val: "street"
        string_val: "streets"
        string_val: "strength"
        string_val: "strengthen"
        string_val: "strengthening"
        string_val: "stressed"
        string_val: "strictly"
        string_val: "strike"
        string_val: "striker"
        string_val: "strikers"
        string_val: "strikes"
        string_val: "striking"
        string_val: "string"
        string_val: "stroke"
        string_val: "strong"
        string_val: "strongly"
        string_val: "struck"
        string_val: "structural"
        string_val: "structure"
        string_val: "struggle"
        string_val: "struggling"
        string_val: "stuart"
        string_val: "stuck"
        string_val: "students"
        string_val: "studio"
        string_val: "study"
        string_val: "stuff"
        string_val: "stunned"
        string_val: "stunning"
        string_val: "stupid"
        string_val: "style"
        string_val: "styles"
        string_val: "sub"
        string_val: "subdued"
        string_val: "subject"
        string_val: "subjected"
…
    key: "T"
    value {
      type: DT_FLOAT
    }
  }
  attr {
    key: "_class"
    value {
      list {
        s: "loc:@listener/bilstm_0/bidirectional_rnn/fw/basic_lstm_cell/bias"
      }
    }
  }
  attr {
    key: "_output_shapes"
    value {
      list {
        shape {
          dim {
            size: 512
          }
        }
      }
    }
  }
  attr {
    key: "use_locking"
    value {
      b: true
    }
  }
  attr {
    key: "validate_shape"
    value {
      b: true
    }
  }
}
node {
  name: "save/Assign_8"
  op: "Assign"
  input: "listener/bilstm_0/bidirectional_rnn/fw/basic_lstm_cell/bias/Adam"
  input: "save/RestoreV2:8"
  attr {
    key: "T"
    value {
      type: DT_FLOAT
    }
  }
  attr {
    key: "_class"
    value {
      list {
        s: "loc:@listener/bilstm_0/bidirectional_rnn/fw/basic_lstm_cell/bias"
      }
    }
  }
  attr {
    key: "_output_shapes"
    value {
      list {
        shape {
          dim {
            size: 512
          }
        }
      }
    }
  }
  attr {
    key: "use_locking"
    value {
      b: true
    }
  }
  attr {
    key: "validate_shape"
    value {
      b: true
    }
  }
}
node {
  name: "save/Assign_9"
  op: "Assign"
  input: "listener/bilstm_0/bidirectional_rnn/fw/basic_lstm_cell/bias/Adam_1"
  input: "save/RestoreV2:9"
  attr {
    key: "T"
    value {
      type: DT_FLOAT
    }
  }
  attr {
    key: "_class"
    value {
      list {
        s: "loc:@listener/bilstm_0/bidirectional_rnn/fw/basic_lstm_cell/bias"
      }
    }
  }
  attr {
    key: "_output_shapes"
    value {
      list {
        shape {
          dim {
            size: 512
          }
        }
      }
    }
  }
  attr {
    key: "use_locking"
    value {
      b: true
    }
  }
  attr {
    key: "validate_shape"
    value {
      b: true
    }
  }
}
node {
  name: "save/Assign_10"
  op: "Assign"
  input: "listener/bilstm_0/bidirectional_rnn/fw/basic_lstm_cell/kernel"
  input: "save/RestoreV2:10"
  attr {
    key: "T"
    value {
      type: DT_FLOAT
    }
  }
  attr {
    key: "_class"
    value {
      list {
        s: "loc:@listener/bilstm_0/bidirectional_rnn/fw/basic_lstm_cell/kernel"
      }
    }
  }
  attr {
    key: "_output_shapes"
    value {
      list {
        shape {
          dim {
            size: 167
          }
          dim {
            size: 512
          }
        }
      }
    }
  }
  attr {
    key: "use_locking"
    value {
      b: true
    }
  }
  attr {
    key: "validate_shape"
    value {
      b: true
    }
  }
}
node {
  name: "save/Assign_11"
  op: "Assign"
  input: "listener/bilstm_0/bidirectional_rnn/fw/basic_lstm_cell/kernel/Adam"
  input: "save/RestoreV2:11"
  attr {
    key: "T"
    value {
      type: DT_FLOAT
    }
  }
  attr {
    key: "_class"
    value {
      list {
        s: "loc:@listener/bilstm_0/bidirectional_rnn/fw/basic_lstm_cell/kernel"
      }
    }
  }
  attr {
    key: "_output_shapes"
    value {
      list {
        shape {
          dim {
            size: 167
          }
          dim {
            size: 512
          }
        }
      }
    }
  }
  attr {
    key: "use_locking"
    value {
      b: true
    }
  }
  attr {
    key: "validate_shape"
    value {
      b: true
    }
  }
}
node {
  name: "save/Assign_12"
  op: "Assign"
  input: "listener/bilstm_0/bidirectional_rnn/fw/basic_lstm_cell/kernel/Adam_1"
  input: "save/RestoreV2:12"
  attr {
    key: "T"
    value {
      type: DT_FLOAT
    }
  }
  attr {
    key: "_class"
    value {
      list {
        s: "loc:@listener/bilstm_0/bidirectional_rnn/fw/basic_lstm_cell/kernel"
      }
    }
  }
  attr {
    key: "_output_shapes"
    value {
      list {
        shape {
          dim {
            size: 167
          }
          dim {
            size: 512
          }
        }
      }
    }
  }
  attr {
    key: "use_locking"
    value {
      b: true
    }
  }
  attr {
    key: "validate_shape"
    value {
      b: true
    }
  }
}
node {
  name: "save/Assign_13"
  op: "Assign"
  input: "listener/bilstm_1/bidirectional_rnn/bw/basic_lstm_cell/bias"
  input: "save/RestoreV2:13"
  attr {
    key: "T"
    value {
      type: DT_FLOAT
    }
  }
  attr {
    key: "_class"
    value {
      list {
        s: "loc:@listener/bilstm_1/bidirectional_rnn/bw/basic_lstm_cell/bias"
      }
    }
  }
  attr {
    key: "_output_shapes"
    value {
      list {
        shape {
          dim {
            size: 512
          }
        }
      }
    }
  }
  attr {
    key: "use_locking"
    value {
      b: true
    }
  }
  attr {
    key: "validate_shape"
    value {
      b: true
    }
  }
}
node {
  name: "save/Assign_14"
  op: "Assign"
  input: "listener/bilstm_1/bidirectional_rnn/bw/basic_lstm_cell/bias/Adam"
  input: "save/RestoreV2:14"
  attr {
    key: "T"
    value {
      type: DT_FLOAT
    }
  }
  attr {
    key: "_class"
    value {
      list {
        s: "loc:@listener/bilstm_1/bidirectional_rnn/bw/basic_lstm_cell/bias"
      }
    }
  }
  attr {
    key: "_output_shapes"
    value {
      list {
        shape {
          dim {
            size: 512
          }
        }
      }
    }
  }
  attr {
    key: "use_locking"
    value {
      b: true
    }
  }
  attr {
    key: "validate_shape"
    value {
      b: true
    }
  }
}
node {
  name: "save/Assign_15"
  op: "Assign"
  input: "listener/bilstm_1/bidirectional_rnn/bw/basic_lstm_cell/bias/Adam_1"
  input: "save/RestoreV2:15"
  attr {
    key: "T"
    value {
      type: DT_FLOAT
    }
  }
  attr {
    key: "_class"
    value {
      list {
        s: "loc:@listener/bilstm_1/bidirectional_rnn/bw/basic_lstm_cell/bias"
      }
    }
  }
  attr {
    key: "_output_shapes"
    value {
      list {
        shape {
          dim {
            size: 512
          }
        }
      }
    }
  }
  attr {
    key: "use_locking"
    value {
      b: true
    }
  }
  attr {
    key: "validate_shape"
    value {
      b: true
    }
  }
}
node {
  name: "save/Assign_16"
  op: "Assign"
  input: "listener/bilstm_1/bidirectional_rnn/bw/basic_lstm_cell/kernel"
  input: "save/RestoreV2:16"
  attr {
    key: "T"
    value {
      type: DT_FLOAT
    }
  }
  attr {
    key: "_class"
    value {
      list {
        s: "loc:@listener/bilstm_1/bidirectional_rnn/bw/basic_lstm_cell/kernel"
      }
    }
  }
  attr {
    key: "_output_shapes"
    value {
      list {
        shape {
          dim {
            size: 384
          }
          dim {
            size: 512
          }
        }
      }
    }
  }
  attr {
    key: "use_locking"
    value {
      b: true
    }
  }
  attr {
    key: "validate_shape"
    value {
      b: true
    }
  }
}
node {
  name: "save/Assign_17"
  op: "Assign"
  input: "listener/bilstm_1/bidirectional_rnn/bw/basic_lstm_cell/kernel/Adam"
  input: "save/RestoreV2:17"
  attr {
    key: "T"
    value {
      type: DT_FLOAT
    }
  }
  attr {
    key: "_class"
    value {
      list {
        s: "loc:@listener/bilstm_1/bidirectional_rnn/bw/basic_lstm_cell/kernel"
      }
    }
  }
  attr {
    key: "_output_shapes"
    value {
      list {
        shape {
          dim {
            size: 384
          }
          dim {
            size: 512
          }
        }
      }
    }
  }
  attr {
    key: "use_locking"
    value {
      b: true
    }
  }
  attr {
    key: "validate_shape"
    value {
      b: true
    }
  }
}
node {
  name: "save/Assign_18"
  op: "Assign"
  input: "listener/bilstm_1/bidirectional_rnn/bw/basic_lstm_cell/kernel/Adam_1"
  input: "save/RestoreV2:18"
  attr {
    key: "T"
    value {
      type: DT_FLOAT
    }
  }
  attr {
    key: "_class"
    value {
      list {
        s: "loc:@listener/bilstm_1/bidirectional_rnn/bw/basic_lstm_cell/kernel"
      }
    }
  }
  attr {
    key: "_output_shapes"
    value {
      list {
        shape {
          dim {
            size: 384
          }
          dim {
            size: 512
          }
        }
      }
    }
  }
  attr {
    key: "use_locking"
    value {
      b: true
    }
  }
  attr {
    key: "validate_shape"
    value {
      b: true
    }
  }
}
node {
  name: "save/Assign_19"
  op: "Assign"
  input: "listener/bilstm_1/bidirectional_rnn/fw/basic_lstm_cell/bias"
  input: "save/RestoreV2:19"
  attr {
    key: "T"
    value {
      type: DT_FLOAT
    }
  }
  attr {
    key: "_class"
    value {
      list {
        s: "loc:@listener/bilstm_1/bidirectional_rnn/fw/basic_lstm_cell/bias"
      }
    }
  }
  attr {
    key: "_output_shapes"
    value {
      list {
        shape {
          dim {
            size: 512
          }
        }
      }
    }
  }
  attr {
    key: "use_locking"
    value {
      b: true
    }
  }
  attr {
    key: "validate_shape"
    value {
      b: true
    }
  }
}
node {
  name: "save/Assign_20"
  op: "Assign"
  input: "listener/bilstm_1/bidirectional_rnn/fw/basic_lstm_cell/bias/Adam"
  input: "save/RestoreV2:20"
  attr {
    key: "T"
    value {
      type: DT_FLOAT
    }
  }
  attr {
    key: "_class"
    value {
      list {
        s: "loc:@listener/bilstm_1/bidirectional_rnn/fw/basic_lstm_cell/bias"
      }
    }
  }
  attr {
    key: "_output_shapes"
    value {
      list {
        shape {
          dim {
            size: 512
          }
        }
      }
    }
  }
  attr {
    key: "use_locking"
    value {
      b: true
    }
  }
  attr {
    key: "validate_shape"
    value {
      b: true
    }
  }
}
node {
  name: "save/Assign_21"
  op: "Assign"
  input: "listener/bilstm_1/bidirectional_rnn/fw/basic_lstm_cell/bias/Adam_1"
  input: "save/RestoreV2:21"
  attr {
    key: "T"
    value {
      type: DT_FLOAT
    }
  }
  attr {
    key: "_class"
    value {
      list {
        s: "loc:@listener/bilstm_1/bidirectional_rnn/fw/basic_lstm_cell/bias"
      }
    }
  }
  attr {
    key: "_output_shapes"
    value {
      list {
        shape {
          dim {
            size: 512
          }
        }
      }
    }
  }
  attr {
    key: "use_locking"
    value {
      b: true
    }
  }
  attr {
    key: "validate_shape"
    value {
      b: true
    }
  }
}
node {
  name: "save/Assign_22"
  op: "Assign"
  input: "listener/bilstm_1/bidirectional_rnn/fw/basic_lstm_cell/kernel"
  input: "save/RestoreV2:22"
  attr {
    key: "T"
    value {
      type: DT_FLOAT
    }
  }
  attr {
    key: "_class"
    value {
      list {
        s: "loc:@listener/bilstm_1/bidirectional_rnn/fw/basic_lstm_cell/kernel"
      }
    }
  }
  attr {
    key: "_output_shapes"
    value {
      list {
        shape {
          dim {
            size: 384
          }
          dim {
            size: 512
          }
        }
      }
    }
  }
  attr {
    key: "use_locking"
    value {
      b: true
    }
  }
  attr {
    key: "validate_shape"
    value {
      b: true
    }
  }
}
node {
  name: "save/Assign_23"
  op: "Assign"
  input: "listener/bilstm_1/bidirectional_rnn/fw/basic_lstm_cell/kernel/Adam"
  input: "save/RestoreV2:23"
  attr {
    key: "T"
    value {
      type: DT_FLOAT
    }
  }
  attr {
    key: "_class"
    value {
      list {
        s: "loc:@listener/bilstm_1/bidirectional_rnn/fw/basic_lstm_cell/kernel"
      }
    }
  }
  attr {
    key: "_output_shapes"
    value {
      list {
        shape {
          dim {
            size: 384
          }
          dim {
            size: 512
          }
        }
      }
    }
  }
  attr {
    key: "use_locking"
    value {
      b: true
    }
  }
  attr {
    key: "validate_shape"
    value {
      b: true
    }
  }
}
node {
  name: "save/Assign_24"
  op: "Assign"
  input: "listener/bilstm_1/bidirectional_rnn/fw/basic_lstm_cell/kernel/Adam_1"
  input: "save/RestoreV2:24"
  attr {
    key: "T"
    value {
      type: DT_FLOAT
    }
  }
  attr {
    key: "_class"
    value {
      list {
        s: "loc:@listener/bilstm_1/bidirectional_rnn/fw/basic_lstm_cell/kernel"
      }
    }
  }
  attr {
    key: "_output_shapes"
    value {
      list {
        shape {
          dim {
            size: 384
          }
          dim {
            size: 512
          }
        }
      }
    }
  }
  attr {
    key: "use_locking"
    value {
      b: true
    }
  }
  attr {
    key: "validate_shape"
    value {
      b: true
    }
  }
}
node {
  name: "save/Assign_25"
  op: "Assign"
  input: "listener/bilstm_2/bidirectional_rnn/bw/basic_lstm_cell/bias"
  input: "save/RestoreV2:25"
  attr {
    key: "T"
    value {
      type: DT_FLOAT
    }
  }
  attr {
    key: "_class"
    value {
      list {
        s: "loc:@listener/bilstm_2/bidirectional_rnn/bw/basic_lstm_cell/bias"
      }
    }
  }
  attr {
    key: "_output_shapes"
    value {
      list {
        shape {
          dim {
            size: 512
          }
        }
      }
    }
  }
  attr {
    key: "use_locking"
    value {
      b: true
    }
  }
  attr {
    key: "validate_shape"
    value {
      b: true
    }
  }
}
node {
  name: "save/Assign_26"
  op: "Assign"
  input: "listener/bilstm_2/bidirectional_rnn/bw/basic_lstm_cell/bias/Adam"
  input: "save/RestoreV2:26"
  attr {
    key: "T"
    value {
      type: DT_FLOAT
    }
  }
  attr {
    key: "_class"
    value {
      list {
        s: "loc:@listener/bilstm_2/bidirectional_rnn/bw/basic_lstm_cell/bias"
      }
    }
  }
  attr {
    key: "_output_shapes"
    value {
      list {
        shape {
          dim {
            size: 512
          }
        }
      }
    }
  }
  attr {
    key: "use_locking"
    value {
      b: true
    }
  }
  attr {
    key: "validate_shape"
    value {
      b: true
    }
  }
}
node {
  name: "save/Assign_27"
  op: "Assign"
  input: "listener/bilstm_2/bidirectional_rnn/bw/basic_lstm_cell/bias/Adam_1"
  input: "save/RestoreV2:27"
  attr {
    key: "T"
    value {
      type: DT_FLOAT
    }
  }
  attr {
    key: "_class"
    value {
      list {
        s: "loc:@listener/bilstm_2/bidirectional_rnn/bw/basic_lstm_cell/bias"
      }
    }
  }
  attr {
    key: "_output_shapes"
    value {
      list {
        shape {
          dim {
            size: 512
          }
        }
      }
    }
  }
  attr {
    key: "use_locking"
    value {
      b: true
    }
  }
  attr {
    key: "validate_shape"
    value {
      b: true
    }
  }
}
node {
  name: "save/Assign_28"
  op: "Assign"
  input: "listener/bilstm_2/bidirectional_rnn/bw/basic_lstm_cell/kernel"
  input: "save/RestoreV2:28"
  attr {
    key: "T"
    value {
      type: DT_FLOAT
    }
  }
  attr {
    key: "_class"
    value {
      list {
        s: "loc:@listener/bilstm_2/bidirectional_rnn/bw/basic_lstm_cell/kernel"
      }
    }
  }
  attr {
    key: "_output_shapes"
    value {
      list {
        shape {
          dim {
            size: 640
          }
          dim {
            size: 512
          }
        }
      }
    }
  }
  attr {
    key: "use_locking"
    value {
      b: true
    }
  }
  attr {
    key: "validate_shape"
    value {
      b: true
    }
  }
}
node {
  name: "save/Assign_29"
  op: "Assign"
  input: "listener/bilstm_2/bidirectional_rnn/bw/basic_lstm_cell/kernel/Adam"
  input: "save/RestoreV2:29"
  attr {
    key: "T"
    value {
      type: DT_FLOAT
    }
  }
  attr {
    key: "_class"
    value {
      list {
        s: "loc:@listener/bilstm_2/bidirectional_rnn/bw/basic_lstm_cell/kernel"
      }
    }
  }
  attr {
    key: "_output_shapes"
    value {
      list {
        shape {
          dim {
            size: 640
          }
          dim {
            size: 512
          }
        }
      }
    }
  }
  attr {
    key: "use_locking"
    value {
      b: true
    }
  }
  attr {
    key: "validate_shape"
    value {
      b: true
    }
  }
}
node {
  name: "save/Assign_30"
  op: "Assign"
  input: "listener/bilstm_2/bidirectional_rnn/bw/basic_lstm_cell/kernel/Adam_1"
  input: "save/RestoreV2:30"
  attr {
    key: "T"
    value {
      type: DT_FLOAT
    }
  }
  attr {
    key: "_class"
    value {
      list {
        s: "loc:@listener/bilstm_2/bidirectional_rnn/bw/basic_lstm_cell/kernel"
      }
    }
  }
  attr {
    key: "_output_shapes"
    value {
      list {
        shape {
          dim {
            size: 640
          }
          dim {
            size: 512
          }
        }
      }
    }
  }
  attr {
    key: "use_locking"
    value {
      b: true
    }
  }
  attr {
    key: "validate_shape"
    value {
      b: true
    }
  }
}
node {
  name: "save/Assign_31"
  op: "Assign"
  input: "listener/bilstm_2/bidirectional_rnn/fw/basic_lstm_cell/bias"
  input: "save/RestoreV2:31"
  attr {
    key: "T"
    value {
      type: DT_FLOAT
    }
  }
  attr {
    key: "_class"
    value {
      list {
        s: "loc:@listener/bilstm_2/bidirectional_rnn/fw/basic_lstm_cell/bias"
      }
    }
  }
  attr {
    key: "_output_shapes"
    value {
      list {
        shape {
          dim {
            size: 512
          }
        }
      }
    }
  }
  attr {
    key: "use_locking"
    value {
      b: true
    }
  }
  attr {
    key: "validate_shape"
    value {
      b: true
    }
  }
}
node {
  name: "save/Assign_32"
  op: "Assign"
  input: "listener/bilstm_2/bidirectional_rnn/fw/basic_lstm_cell/bias/Adam"
  input: "save/RestoreV2:32"
  attr {
    key: "T"
    value {
      type: DT_FLOAT
    }
  }
  attr {
    key: "_class"
    value {
      list {
        s: "loc:@listener/bilstm_2/bidirectional_rnn/fw/basic_lstm_cell/bias"
      }
    }
  }
  attr {
    key: "_output_shapes"
    value {
      list {
        shape {
          dim {
            size: 512
          }
        }
      }
    }
  }
  attr {
    key: "use_locking"
    value {
      b: true
    }
  }
  attr {
    key: "validate_shape"
    value {
      b: true
    }
  }
}
node {
  name: "save/Assign_33"
  op: "Assign"
  input: "listener/bilstm_2/bidirectional_rnn/fw/basic_lstm_cell/bias/Adam_1"
  input: "save/RestoreV2:33"
  attr {
    key: "T"
    value {
      type: DT_FLOAT
    }
  }
  attr {
    key: "_class"
    value {
      list {
        s: "loc:@listener/bilstm_2/bidirectional_rnn/fw/basic_lstm_cell/bias"
      }
    }
  }
  attr {
    key: "_output_shapes"
    value {
      list {
        shape {
          dim {
            size: 512
          }
        }
      }
    }
  }
  attr {
    key: "use_locking"
    value {
      b: true
    }
  }
  attr {
    key: "validate_shape"
    value {
      b: true
    }
  }
}
node {
  name: "save/Assign_34"
  op: "Assign"
  input: "listener/bilstm_2/bidirectional_rnn/fw/basic_lstm_cell/kernel"
  input: "save/RestoreV2:34"
  attr {
    key: "T"
    value {
      type: DT_FLOAT
    }
  }
  attr {
    key: "_class"
    value {
      list {
        s: "loc:@listener/bilstm_2/bidirectional_rnn/fw/basic_lstm_cell/kernel"
      }
    }
  }
  attr {
    key: "_output_shapes"
    value {
      list {
        shape {
          dim {
            size: 640
          }
          dim {
            size: 512
          }
        }
      }
    }
  }
  attr {
    key: "use_locking"
    value {
      b: true
    }
  }
  attr {
    key: "validate_shape"
    value {
      b: true
    }
  }
}
node {
  name: "save/Assign_35"
  op: "Assign"
  input: "listener/bilstm_2/bidirectional_rnn/fw/basic_lstm_cell/kernel/Adam"
  input: "save/RestoreV2:35"
  attr {
    key: "T"
    value {
      type: DT_FLOAT
    }
  }
  attr {
    key: "_class"
    value {
      list {
        s: "loc:@listener/bilstm_2/bidirectional_rnn/fw/basic_lstm_cell/kernel"
      }
    }
  }
  attr {
    key: "_output_shapes"
    value {
      list {
        shape {
          dim {
            size: 640
          }
          dim {
            size: 512
          }
        }
      }
    }
  }
  attr {
    key: "use_locking"
    value {
      b: true
    }
  }
  attr {
    key: "validate_shape"
    value {
      b: true
    }
  }
}
node {
  name: "save/Assign_36"
  op: "Assign"
  input: "listener/bilstm_2/bidirectional_rnn/fw/basic_lstm_cell/kernel/Adam_1"
  input: "save/RestoreV2:36"
  attr {
    key: "T"
    value {
      type: DT_FLOAT
    }
  }
  attr {
    key: "_class"
    value {
      list {
        s: "loc:@listener/bilstm_2/bidirectional_rnn/fw/basic_lstm_cell/kernel"
      }
    }
  }
  attr {
    key: "_output_shapes"
    value {
      list {
        shape {
          dim {
            size: 640
          }
          dim {
            size: 512
          }
        }
      }
    }
  }
  attr {
    key: "use_locking"
    value {
      b: true
    }
  }
  attr {
    key: "validate_shape"
    value {
      b: true
    }
  }
}
node {
  name: "save/Assign_37"
  op: "Assign"
  input: "speller/decoder/attention_wrapper/multi_rnn_cell/cell_0/basic_lstm_cell/bias"
  input: "save/RestoreV2:37"
  attr {
    key: "T"
    value {
      type: DT_FLOAT
    }
  }
  attr {
    key: "_class"
    value {
      list {
        s: "loc:@speller/decoder/attention_wrapper/multi_rnn_cell/cell_0/basic_lstm_cell/bias"
      }
    }
  }
  attr {
    key: "_output_shapes"
    value {
      list {
        shape {
          dim {
            size: 512
          }
        }
      }
    }
  }
  attr {
    key: "use_locking"
    value {
      b: true
    }
  }
  attr {
    key: "validate_shape"
    value {
      b: true
    }
  }
}
node {
  name: "save/Assign_38"
  op: "Assign"
  input: "speller/decoder/attention_wrapper/multi_rnn_cell/cell_0/basic_lstm_cell/bias/Adam"
  input: "save/RestoreV2:38"
  attr {
    key: "T"
    value {
      type: DT_FLOAT
    }
  }
  attr {
    key: "_class"
    value {
      list {
        s: "loc:@speller/decoder/attention_wrapper/multi_rnn_cell/cell_0/basic_lstm_cell/bias"
      }
    }
  }
  attr {
    key: "_output_shapes"
    value {
      list {
        shape {
          dim {
            size: 512
          }
        }
      }
    }
  }
  attr {
    key: "use_locking"
    value {
      b: true
    }
  }
  attr {
    key: "validate_shape"
    value {
      b: true
    }
  }
}
node {
  name: "save/Assign_39"
  op: "Assign"
  input: "speller/decoder/attention_wrapper/multi_rnn_cell/cell_0/basic_lstm_cell/bias/Adam_1"
  input: "save/RestoreV2:39"
  attr {
    key: "T"
    value {
      type: DT_FLOAT
    }
  }
  attr {
    key: "_class"
    value {
      list {
        s: "loc:@speller/decoder/attention_wrapper/multi_rnn_cell/cell_0/basic_lstm_cell/bias"
      }
    }
  }
  attr {
    key: "_output_shapes"
    value {
      list {
        shape {
          dim {
            size: 512
          }
        }
      }
    }
  }
  attr {
    key: "use_locking"
    value {
      b: true
    }
  }
  attr {
    key: "validate_shape"
    value {
      b: true
    }
  }
}
node {
  name: "save/Assign_40"
  op: "Assign"
  input: "speller/decoder/attention_wrapper/multi_rnn_cell/cell_0/basic_lstm_cell/kernel"
  input: "save/RestoreV2:40"
  attr {
    key: "T"
    value {
      type: DT_FLOAT
    }
  }
  attr {
    key: "_class"
    value {
      list {
        s: "loc:@speller/decoder/attention_wrapper/multi_rnn_cell/cell_0/basic_lstm_cell/kernel"
      }
    }
  }
  attr {
    key: "_output_shapes"
    value {
      list {
        shape {
          dim {
            size: 6225
          }
          dim {
            size: 512
          }
        }
      }
    }
  }
  attr {
    key: "use_locking"
    value {
      b: true
    }
  }
  attr {
    key: "validate_shape"
    value {
      b: true
    }
  }
}
node {
  name: "save/Assign_41"
  op: "Assign"
  input: "speller/decoder/attention_wrapper/multi_rnn_cell/cell_0/basic_lstm_cell/kernel/Adam"
  input: "save/RestoreV2:41"
  attr {
    key: "T"
    value {
      type: DT_FLOAT
    }
  }
  attr {
    key: "_class"
    value {
      list {
        s: "loc:@speller/decoder/attention_wrapper/multi_rnn_cell/cell_0/basic_lstm_cell/kernel"
      }
    }
  }
  attr {
    key: "_output_shapes"
    value {
      list {
        shape {
          dim {
            size: 6225
          }
          dim {
            size: 512
          }
        }
      }
    }
  }
  attr {
    key: "use_locking"
    value {
      b: true
    }
  }
  attr {
    key: "validate_shape"
    value {
      b: true
    }
  }
}
node {
  name: "save/Assign_42"
  op: "Assign"
  input: "speller/decoder/attention_wrapper/multi_rnn_cell/cell_0/basic_lstm_cell/kernel/Adam_1"
  input: "save/RestoreV2:42"
  attr {
    key: "T"
    value {
      type: DT_FLOAT
    }
  }
  attr {
    key: "_class"
    value {
      list {
        s: "loc:@speller/decoder/attention_wrapper/multi_rnn_cell/cell_0/basic_lstm_cell/kernel"
      }
    }
  }
  attr {
    key: "_output_shapes"
    value {
      list {
        shape {
          dim {
            size: 6225
          }
          dim {
            size: 512
          }
        }
      }
    }
  }
  attr {
    key: "use_locking"
    value {
      b: true
    }
  }
  attr {
    key: "validate_shape"
    value {
      b: true
    }
  }
}
node {
  name: "save/Assign_43"
  op: "Assign"
  input: "speller/decoder/projection_layer/bias"
  input: "save/RestoreV2:43"
  attr {
    key: "T"
    value {
      type: DT_FLOAT
    }
  }
  attr {
    key: "_class"
    value {
      list {
        s: "loc:@speller/decoder/projection_layer/bias"
      }
    }
  }
  attr {
    key: "_output_shapes"
    value {
      list {
        shape {
          dim {
            size: 5585
          }
        }
      }
    }
  }
  attr {
    key: "use_locking"
    value {
      b: true
    }
  }
  attr {
    key: "validate_shape"
    value {
      b: true
    }
  }
}
node {
  name: "save/Assign_44"
  op: "Assign"
  input: "speller/decoder/projection_layer/bias/Adam"
  input: "save/RestoreV2:44"
  attr {
    key: "T"
    value {
      type: DT_FLOAT
    }
  }
  attr {
    key: "_class"
    value {
      list {
        s: "loc:@speller/decoder/projection_layer/bias"
      }
    }
  }
  attr {
    key: "_output_shapes"
    value {
      list {
        shape {
          dim {
            size: 5585
          }
        }
      }
    }
  }
  attr {
    key: "use_locking"
    value {
      b: true
    }
  }
  attr {
    key: "validate_shape"
    value {
      b: true
    }
  }
}
node {
  name: "save/Assign_45"
  op: "Assign"
  input: "speller/decoder/projection_layer/bias/Adam_1"
  input: "save/RestoreV2:45"
  attr {
    key: "T"
    value {
      type: DT_FLOAT
    }
  }
  attr {
    key: "_class"
    value {
      list {
        s: "loc:@speller/decoder/projection_layer/bias"
      }
    }
  }
  attr {
    key: "_output_shapes"
    value {
      list {
        shape {
          dim {
            size: 5585
          }
        }
      }
    }
  }
  attr {
    key: "use_locking"
    value {
      b: true
    }
  }
  attr {
    key: "validate_shape"
    value {
      b: true
    }
  }
}
node {
  name: "save/Assign_46"
  op: "Assign"
  input: "speller/decoder/projection_layer/kernel"
  input: "save/RestoreV2:46"
  attr {
    key: "T"
    value {
      type: DT_FLOAT
    }
  }
  attr {
    key: "_class"
    value {
      list {
        s: "loc:@speller/decoder/projection_layer/kernel"
      }
    }
  }
  attr {
    key: "_output_shapes"
    value {
      list {
        shape {
          dim {
            size: 512
          }
          dim {
            size: 5585
          }
        }
      }
    }
  }
  attr {
    key: "use_locking"
    value {
      b: true
    }
  }
  attr {
    key: "validate_shape"
    value {
      b: true
    }
  }
}
node {
  name: "save/Assign_47"
  op: "Assign"
  input: "speller/decoder/projection_layer/kernel/Adam"
  input: "save/RestoreV2:47"
  attr {
    key: "T"
    value {
      type: DT_FLOAT
    }
  }
  attr {
    key: "_class"
    value {
      list {
        s: "loc:@speller/decoder/projection_layer/kernel"
      }
    }
  }
  attr {
    key: "_output_shapes"
    value {
      list {
        shape {
          dim {
            size: 512
          }
          dim {
            size: 5585
          }
        }
      }
    }
  }
  attr {
    key: "use_locking"
    value {
      b: true
    }
  }
  attr {
    key: "validate_shape"
    value {
      b: true
    }
  }
}
node {
  name: "save/Assign_48"
  op: "Assign"
  input: "speller/decoder/projection_layer/kernel/Adam_1"
  input: "save/RestoreV2:48"
  attr {
    key: "T"
    value {
      type: DT_FLOAT
    }
  }
  attr {
    key: "_class"
    value {
      list {
        s: "loc:@speller/decoder/projection_layer/kernel"
      }
    }
  }
  attr {
    key: "_output_shapes"
    value {
      list {
        shape {
          dim {
            size: 512
          }
          dim {
            size: 5585
          }
        }
      }
    }
  }
  attr {
    key: "use_locking"
    value {
      b: true
    }
  }
  attr {
    key: "validate_shape"
    value {
      b: true
    }
  }
}
node {
  name: "save/Assign_49"
  op: "Assign"
  input: "speller/memory_layer/kernel"
  input: "save/RestoreV2:49"
  attr {
    key: "T"
    value {
      type: DT_FLOAT
    }
  }
  attr {
    key: "_class"
    value {
      list {
        s: "loc:@speller/memory_layer/kernel"
      }
    }
  }
  attr {
    key: "_output_shapes"
    value {
      list {
        shape {
          dim {
            size: 512
          }
          dim {
            size: 128
          }
        }
      }
    }
  }
  attr {
    key: "use_locking"
    value {
      b: true
    }
  }
  attr {
    key: "validate_shape"
    value {
      b: true
    }
  }
}
node {
  name: "save/Assign_50"
  op: "Assign"
  input: "speller/memory_layer/kernel/Adam"
  input: "save/RestoreV2:50"
  attr {
    key: "T"
    value {
      type: DT_FLOAT
    }
  }
  attr {
    key: "_class"
    value {
      list {
        s: "loc:@speller/memory_layer/kernel"
      }
    }
  }
  attr {
    key: "_output_shapes"
    value {
      list {
        shape {
          dim {
            size: 512
          }
          dim {
            size: 128
          }
        }
      }
    }
  }
  attr {
    key: "use_locking"
    value {
      b: true
    }
  }
  attr {
    key: "validate_shape"
    value {
      b: true
    }
  }
}
node {
  name: "save/Assign_51"
  op: "Assign"
  input: "speller/memory_layer/kernel/Adam_1"
  input: "save/RestoreV2:51"
  attr {
    key: "T"
    value {
      type: DT_FLOAT
    }
  }
  attr {
    key: "_class"
    value {
      list {
        s: "loc:@speller/memory_layer/kernel"
      }
    }
  }
  attr {
    key: "_output_shapes"
    value {
      list {
        shape {
          dim {
            size: 512
          }
          dim {
            size: 128
          }
        }
      }
    }
  }
  attr {
    key: "use_locking"
    value {
      b: true
    }
  }
  attr {
    key: "validate_shape"
    value {
      b: true
    }
  }
}
node {
  name: "save/Assign_52"
  op: "Assign"
  input: "train/beta1_power"
  input: "save/RestoreV2:52"
  attr {
    key: "T"
    value {
      type: DT_FLOAT
    }
  }
  attr {
    key: "_class"
    value {
      list {
        s: "loc:@listener/bilstm_0/bidirectional_rnn/bw/basic_lstm_cell/bias"
      }
    }
  }
  attr {
    key: "_output_shapes"
    value {
      list {
        shape {
        }
      }
    }
  }
  attr {
    key: "use_locking"
    value {
      b: true
    }
  }
  attr {
    key: "validate_shape"
    value {
      b: true
    }
  }
}
node {
  name: "save/Assign_53"
  op: "Assign"
  input: "train/beta2_power"
  input: "save/RestoreV2:53"
  attr {
    key: "T"
    value {
      type: DT_FLOAT
    }
  }
  attr {
    key: "_class"
    value {
      list {
        s: "loc:@listener/bilstm_0/bidirectional_rnn/bw/basic_lstm_cell/bias"
      }
    }
  }
  attr {
    key: "_output_shapes"
    value {
      list {
        shape {
        }
      }
    }
  }
  attr {
    key: "use_locking"
    value {
      b: true
    }
  }
  attr {
    key: "validate_shape"
    value {
      b: true
    }
  }
}
node {
  name: "save/restore_shard"
  op: "NoOp"
  input: "^save/Assign"
  input: "^save/Assign_1"
  input: "^save/Assign_10"
  input: "^save/Assign_11"
  input: "^save/Assign_12"
  input: "^save/Assign_13"
  input: "^save/Assign_14"
  input: "^save/Assign_15"
  input: "^save/Assign_16"
  input: "^save/Assign_17"
  input: "^save/Assign_18"
  input: "^save/Assign_19"
  input: "^save/Assign_2"
  input: "^save/Assign_20"
  input: "^save/Assign_21"
  input: "^save/Assign_22"
  input: "^save/Assign_23"
  input: "^save/Assign_24"
  input: "^save/Assign_25"
  input: "^save/Assign_26"
  input: "^save/Assign_27"
  input: "^save/Assign_28"
  input: "^save/Assign_29"
  input: "^save/Assign_3"
  input: "^save/Assign_30"
  input: "^save/Assign_31"
  input: "^save/Assign_32"
  input: "^save/Assign_33"
  input: "^save/Assign_34"
  input: "^save/Assign_35"
  input: "^save/Assign_36"
  input: "^save/Assign_37"
  input: "^save/Assign_38"
  input: "^save/Assign_39"
  input: "^save/Assign_4"
  input: "^save/Assign_40"
  input: "^save/Assign_41"
  input: "^save/Assign_42"
  input: "^save/Assign_43"
  input: "^save/Assign_44"
  input: "^save/Assign_45"
  input: "^save/Assign_46"
  input: "^save/Assign_47"
  input: "^save/Assign_48"
  input: "^save/Assign_49"
  input: "^save/Assign_5"
  input: "^save/Assign_50"
  input: "^save/Assign_51"
  input: "^save/Assign_52"
  input: "^save/Assign_53"
  input: "^save/Assign_6"
  input: "^save/Assign_7"
  input: "^save/Assign_8"
  input: "^save/Assign_9"
}
node {
  name: "save/restore_all"
  op: "NoOp"
  input: "^save/restore_shard"
}
library {
  function {
    signature {
      name: "tf_data_structured_function_wrapper_AAfPU2iCD9w"
      input_arg {
        name: "arg0_0"
        type: DT_FLOAT
      }
      input_arg {
        name: "arg1"
        type: DT_INT64
      }
      output_arg {
        name: "arg0"
        type: DT_FLOAT
      }
      output_arg {
        name: "cast"
        type: DT_INT32
      }
      description: "Wrapper for passing nested structures to and from tf.data functions."
    }
    node_def {
      name: "Cast"
      op: "Cast"
      input: "arg1"
      device: "/device:CPU:0"
      attr {
        key: "DstT"
        value {
          type: DT_INT32
        }
      }
      attr {
        key: "SrcT"
        value {
          type: DT_INT64
        }
      }
      attr {
        key: "Truncate"
        value {
          b: false
        }
      }
    }
    ret {
      key: "arg0"
      value: "arg0_0"
    }
    ret {
      key: "cast"
      value: "Cast:y:0"
    }
  }
  function {
    signature {
      name: "tf_data_structured_function_wrapper_hvYyoquGYAk"
      input_arg {
        name: "arg0_0"
        type: DT_FLOAT
      }
      input_arg {
        name: "arg1_0"
        type: DT_INT32
      }
      input_arg {
        name: "arg2_0"
        type: DT_INT32
      }
      input_arg {
        name: "arg3_0"
        type: DT_INT32
      }
      input_arg {
        name: "arg4_0"
        type: DT_INT32
      }
      output_arg {
        name: "arg0"
        type: DT_FLOAT
      }
      output_arg {
        name: "arg3"
        type: DT_INT32
      }
      output_arg {
        name: "arg4"
        type: DT_INT32
      }
      output_arg {
        name: "arg1"
        type: DT_INT32
      }
      output_arg {
        name: "arg2"
        type: DT_INT32
      }
      description: "Wrapper for passing nested structures to and from tf.data functions."
    }
    ret {
      key: "arg0"
      value: "arg0_0"
    }
    ret {
      key: "arg1"
      value: "arg1_0"
    }
    ret {
      key: "arg2"
      value: "arg2_0"
    }
    ret {
      key: "arg3"
      value: "arg3_0"
    }
    ret {
      key: "arg4"
      value: "arg4_0"
    }
  }
  function {
    signature {
      name: "tf_data_structured_function_wrapper_mAdOBgQrakc"
      input_arg {
        name: "arg0_0"
        type: DT_FLOAT
      }
      input_arg {
        name: "arg1"
        type: DT_INT32
      }
      input_arg {
        name: "concat_values_0_placeholder"
        type: DT_INT32
      }
      input_arg {
        name: "concat_1_values_1_placeholder"
        type: DT_INT32
      }
      output_arg {
        name: "arg0"
        type: DT_FLOAT
      }
      output_arg {
        name: "concat"
        type: DT_INT32
      }
      output_arg {
        name: "concat_1"
        type: DT_INT32
      }
      description: "Wrapper for passing nested structures to and from tf.data functions."
    }
    node_def {
      name: "concat/values_0"
      op: "Pack"
      input: "concat_values_0_placeholder"
      device: "/device:CPU:0"
      attr {
        key: "N"
        value {
          i: 1
        }
      }
      attr {
        key: "T"
        value {
          type: DT_INT32
        }
      }
      attr {
        key: "axis"
        value {
          i: 0
        }
      }
    }
    node_def {
      name: "concat/axis"
      op: "Const"
      device: "/device:CPU:0"
      attr {
        key: "dtype"
        value {
          type: DT_INT32
        }
      }
      attr {
        key: "value"
        value {
          tensor {
            dtype: DT_INT32
            tensor_shape {
            }
            int_val: 0
          }
        }
      }
    }
    node_def {
      name: "concat_0"
      op: "ConcatV2"
      input: "concat/values_0:output:0"
      input: "arg1"
      input: "concat/axis:output:0"
      device: "/device:CPU:0"
      attr {
        key: "N"
        value {
          i: 2
        }
      }
      attr {
        key: "T"
        value {
          type: DT_INT32
        }
      }
      attr {
        key: "Tidx"
        value {
          type: DT_INT32
        }
      }
    }
    node_def {
      name: "concat_1/values_1"
      op: "Pack"
      input: "concat_1_values_1_placeholder"
      device: "/device:CPU:0"
      attr {
        key: "N"
        value {
          i: 1
        }
      }
      attr {
        key: "T"
        value {
          type: DT_INT32
        }
      }
      attr {
        key: "axis"
        value {
          i: 0
        }
      }
    }
    node_def {
      name: "concat_1/axis"
      op: "Const"
      device: "/device:CPU:0"
      attr {
        key: "dtype"
        value {
          type: DT_INT32
        }
      }
      attr {
        key: "value"
        value {
          tensor {
            dtype: DT_INT32
            tensor_shape {
            }
            int_val: 0
          }
        }
      }
    }
    node_def {
      name: "concat_1_0"
      op: "ConcatV2"
      input: "arg1"
      input: "concat_1/values_1:output:0"
      input: "concat_1/axis:output:0"
      device: "/device:CPU:0"
      attr {
        key: "N"
        value {
          i: 2
        }
      }
      attr {
        key: "T"
        value {
          type: DT_INT32
        }
      }
      attr {
        key: "Tidx"
        value {
          type: DT_INT32
        }
      }
    }
    ret {
      key: "arg0"
      value: "arg0_0"
    }
    ret {
      key: "concat"
      value: "concat_0:output:0"
    }
    ret {
      key: "concat_1"
      value: "concat_1_0:output:0"
    }
  }
  function {
    signature {
      name: "tf_data_structured_function_wrapper_lPmvTEtOHbs"
      input_arg {
        name: "arg0_0"
        type: DT_FLOAT
      }
      input_arg {
        name: "arg1"
        type: DT_STRING
      }
      input_arg {
        name: "hash_table_lookup_placeholder"
        type: DT_RESOURCE
      }
      input_arg {
        name: "hash_table_lookup_placeholder_1"
        type: DT_INT64
      }
      output_arg {
        name: "arg0"
        type: DT_FLOAT
      }
      output_arg {
        name: "hash_table_lookup"
        type: DT_INT64
      }
      description: "Wrapper for passing nested structures to and from tf.data functions."
      is_stateful: true
    }
    node_def {
      name: "hash_table_Lookup"
      op: "LookupTableFindV2"
      input: "hash_table_lookup_placeholder"
      input: "arg1"
      input: "hash_table_lookup_placeholder_1"
      device: "/device:CPU:0"
      attr {
        key: "Tin"
        value {
          type: DT_STRING
        }
      }
      attr {
        key: "Tout"
        value {
          type: DT_INT64
        }
      }
    }
    ret {
      key: "arg0"
      value: "arg0_0"
    }
    ret {
      key: "hash_table_lookup"
      value: "hash_table_Lookup:values:0"
    }
  }
  function {
    signature {
      name: "tf_data_structured_function_wrapper_aeuwDpH4P8c"
      input_arg {
        name: "arg0"
        type: DT_STRING
      }
      output_arg {
        name: "parsesinglesequenceexample_parsesinglesequenceexample"
        type: DT_FLOAT
      }
      output_arg {
        name: "parsesinglesequenceexample_parsesinglesequenceexample_0"
        type: DT_STRING
      }
      description: "Wrapper for passing nested structures to and from tf.data functions."
    }
    node_def {
      name: "ParseSingleSequenceExample/ParseSingleSequenceExample/feature_list_dense_missing_assumed_empty"
      op: "Const"
      device: "/device:CPU:0"
      attr {
        key: "dtype"
        value {
          type: DT_STRING
        }
      }
      attr {
        key: "value"
        value {
          tensor {
            dtype: DT_STRING
            tensor_shape {
              dim {
              }
            }
          }
        }
      }
    }
    node_def {
      name: "ParseSingleSequenceExample/ParseSingleSequenceExample/feature_list_dense_keys_0"
      op: "Const"
      device: "/device:CPU:0"
      attr {
        key: "dtype"
        value {
          type: DT_STRING
        }
      }
      attr {
        key: "value"
        value {
          tensor {
            dtype: DT_STRING
            tensor_shape {
            }
            string_val: "inputs"
          }
        }
      }
    }
    node_def {
      name: "ParseSingleSequenceExample/ParseSingleSequenceExample/feature_list_dense_keys_1"
      op: "Const"
      device: "/device:CPU:0"
      attr {
        key: "dtype"
        value {
          type: DT_STRING
        }
      }
      attr {
        key: "value"
        value {
          tensor {
            dtype: DT_STRING
            tensor_shape {
            }
            string_val: "labels"
          }
        }
      }
    }
    node_def {
      name: "ParseSingleSequenceExample/ParseSingleSequenceExample/debug_name"
      op: "Const"
      device: "/device:CPU:0"
      attr {
        key: "dtype"
        value {
          type: DT_STRING
        }
      }
      attr {
        key: "value"
        value {
          tensor {
            dtype: DT_STRING
            tensor_shape {
            }
            string_val: ""
          }
        }
      }
    }
    node_def {
      name: "ParseSingleSequenceExample/ParseSingleSequenceExample"
      op: "ParseSingleSequenceExample"
      input: "arg0"
      input: "ParseSingleSequenceExample/ParseSingleSequenceExample/feature_list_dense_missing_assumed_empty:output:0"
      input: "ParseSingleSequenceExample/ParseSingleSequenceExample/feature_list_dense_keys_0:output:0"
      input: "ParseSingleSequenceExample/ParseSingleSequenceExample/feature_list_dense_keys_1:output:0"
      input: "ParseSingleSequenceExample/ParseSingleSequenceExample/debug_name:output:0"
      device: "/device:CPU:0"
      attr {
        key: "Ncontext_dense"
        value {
          i: 0
        }
      }
      attr {
        key: "Ncontext_sparse"
        value {
          i: 0
        }
      }
      attr {
        key: "Nfeature_list_dense"
        value {
          i: 2
        }
      }
      attr {
        key: "Nfeature_list_sparse"
        value {
          i: 0
        }
      }
      attr {
        key: "Tcontext_dense"
        value {
          list {
          }
        }
      }
      attr {
        key: "context_dense_shapes"
        value {
          list {
          }
        }
      }
      attr {
        key: "context_sparse_types"
        value {
          list {
          }
        }
      }
      attr {
        key: "feature_list_dense_shapes"
        value {
          list {
            shape {
              dim {
                size: 39
              }
            }
            shape {
            }
          }
        }
      }
      attr {
        key: "feature_list_dense_types"
        value {
          list {
            type: DT_FLOAT
            type: DT_STRING
          }
        }
      }
      attr {
        key: "feature_list_sparse_types"
        value {
          list {
          }
        }
      }
    }
    ret {
      key: "parsesinglesequenceexample_parsesinglesequenceexample"
      value: "ParseSingleSequenceExample/ParseSingleSequenceExample:feature_list_dense_values:0"
    }
    ret {
      key: "parsesinglesequenceexample_parsesinglesequenceexample_0"
      value: "ParseSingleSequenceExample/ParseSingleSequenceExample:feature_list_dense_values:1"
    }
  }
  function {
    signature {
      name: "tf_data_structured_function_wrapper_52oRgbbAY9U"
      input_arg {
        name: "arg0"
        type: DT_STRING
      }
      output_arg {
        name: "tfrecorddataset"
        type: DT_VARIANT
      }
      description: "Wrapper for passing nested structures to and from tf.data functions."
      is_stateful: true
    }
    node_def {
      name: "compression_type"
      op: "Const"
      device: "/device:CPU:0"
      attr {
        key: "dtype"
        value {
          type: DT_STRING
        }
      }
      attr {
        key: "value"
        value {
          tensor {
            dtype: DT_STRING
            tensor_shape {
            }
            string_val: ""
          }
        }
      }
    }
    node_def {
      name: "buffer_size"
      op: "Const"
      device: "/device:CPU:0"
      attr {
        key: "dtype"
        value {
          type: DT_INT64
        }
      }
      attr {
        key: "value"
        value {
          tensor {
            dtype: DT_INT64
            tensor_shape {
            }
            int64_val: 262144
          }
        }
      }
    }
    node_def {
      name: "TFRecordDataset"
      op: "TFRecordDataset"
      input: "arg0"
      input: "compression_type:output:0"
      input: "buffer_size:output:0"
      device: "/device:CPU:0"
    }
    ret {
      key: "tfrecorddataset"
      value: "TFRecordDataset:handle:0"
    }
  }
  function {
    signature {
      name: "tf_data_structured_function_wrapper_xVA2SbI2ctA"
      input_arg {
        name: "arg0_0"
        type: DT_FLOAT
      }
      input_arg {
        name: "arg1_0"
        type: DT_INT32
      }
      input_arg {
        name: "arg2_0"
        type: DT_INT32
      }
      output_arg {
        name: "arg0"
        type: DT_FLOAT
      }
      output_arg {
        name: "arg1"
        type: DT_INT32
      }
      output_arg {
        name: "arg2"
        type: DT_INT32
      }
      output_arg {
        name: "strided_slice"
        type: DT_INT32
      }
      output_arg {
        name: "size"
        type: DT_INT32
      }
      description: "Wrapper for passing nested structures to and from tf.data functions."
    }
    node_def {
      name: "Shape"
      op: "Shape"
      input: "arg0_0"
      device: "/device:CPU:0"
      attr {
        key: "T"
        value {
          type: DT_FLOAT
        }
      }
      attr {
        key: "out_type"
        value {
          type: DT_INT32
        }
      }
    }
    node_def {
      name: "strided_slice/stack"
      op: "Const"
      device: "/device:CPU:0"
      attr {
        key: "dtype"
        value {
          type: DT_INT32
        }
      }
      attr {
        key: "value"
        value {
          tensor {
            dtype: DT_INT32
            tensor_shape {
              dim {
                size: 1
              }
            }
            int_val: 0
          }
        }
      }
    }
    node_def {
      name: "strided_slice/stack_1"
      op: "Const"
      device: "/device:CPU:0"
      attr {
        key: "dtype"
        value {
          type: DT_INT32
        }
      }
      attr {
        key: "value"
        value {
          tensor {
            dtype: DT_INT32
            tensor_shape {
              dim {
                size: 1
              }
            }
            int_val: 1
          }
        }
      }
    }
    node_def {
      name: "strided_slice/stack_2"
      op: "Const"
      device: "/device:CPU:0"
      attr {
        key: "dtype"
        value {
          type: DT_INT32
        }
      }
      attr {
        key: "value"
        value {
          tensor {
            dtype: DT_INT32
            tensor_shape {
              dim {
                size: 1
              }
            }
            int_val: 1
          }
        }
      }
    }
    node_def {
      name: "strided_slice_0"
      op: "StridedSlice"
      input: "Shape:output:0"
      input: "strided_slice/stack:output:0"
      input: "strided_slice/stack_1:output:0"
      input: "strided_slice/stack_2:output:0"
      device: "/device:CPU:0"
      attr {
        key: "Index"
        value {
          type: DT_INT32
        }
      }
      attr {
        key: "T"
        value {
          type: DT_INT32
        }
      }
      attr {
        key: "begin_mask"
        value {
          i: 0
        }
      }
      attr {
        key: "ellipsis_mask"
        value {
          i: 0
        }
      }
      attr {
        key: "end_mask"
        value {
          i: 0
        }
      }
      attr {
        key: "new_axis_mask"
        value {
          i: 0
        }
      }
      attr {
        key: "shrink_axis_mask"
        value {
          i: 1
        }
      }
    }
    node_def {
      name: "Size"
      op: "Size"
      input: "arg1_0"
      device: "/device:CPU:0"
      attr {
        key: "T"
        value {
          type: DT_INT32
        }
      }
      attr {
        key: "out_type"
        value {
          type: DT_INT32
        }
      }
    }
    ret {
      key: "arg0"
      value: "arg0_0"
    }
    ret {
      key: "arg1"
      value: "arg1_0"
    }
    ret {
      key: "arg2"
      value: "arg2_0"
    }
    ret {
      key: "size"
      value: "Size:output:0"
    }
    ret {
      key: "strided_slice"
      value: "strided_slice_0:output:0"
    }
  }
}
versions {
  producer: 27
  min_consumer: 12
}
